OpenPifPaf/models/leg-raises_lstm.pth (torch, 339159 bytes, 6 tensors)

lstm.weight_ih_l0 f4 [512, 34]
000000 2b 59 73 bc 31 9f 8c 3d 51 cd 9b bd a2 81 be 3d
       -0.014852802 0.06866301 -0.0760752 0.09302069
000010 b5 97 cd 3c 49 0b 96 3d 2a b6 35 3d 83 81 92 bd
       0.025096754 0.07326371 0.04436318 -0.07153609
000020 e1 c7 0a bb a1 2d 35 3c 5a 13 39 3d 8d 0d ac 3d
       -0.0021176266 0.011058242 0.04518447 0.08401022
000030 a8 1b c3 bc 0b 26 61 3d b8 a9 2a 3d 0c 19 82 bd
       -0.023816898 0.05496792 0.041665763 -0.063524336
000040 3b 42 07 3d 89 37 49 3d c5 1d b4 bc 63 7b 3c bc
       0.033022147 0.049125228 -0.021986851 -0.011504027
000050 1c 44 a9 bb 3f bf 1f 3d d8 55 f7 3c ac ad 66 bd
       -0.00516559 0.039000746 0.0301923 -0.05631797
000060 f1 19 3d bc 7f 21 a3 3d 0e d2 9c bd af 17 92 3c
       -0.011541829 0.07965373 -0.07657252 0.017833559
000070 31 5f a8 3d 1b b3 8e 3d c0 1a 00 3b 97 a1 8d 3d
       0.08221281 0.069677554 0.0019547194 0.069155864
000080 41 39 9b 3d 7c d4 c5 bc 8e d2 ab bd aa 9f 84 bd
       0.0757928 -0.024149172 -0.083897695 -0.06475766
000090 c4 a3 d1 38 3a 34 51 3d c7 7f 7a 3b 75 b7 0f bd
       9.9964e-05 0.051075198 0.0038223134 -0.035087068
0000a0 80 ab 8e ba b0 91 04 3c 08 f1 89 3d f7 25 8b 3d
       -0.0010884851 0.008091375 0.06735426 0.067943506
0000b0 a4 b6 5e 3d ef 1c 29 3d ed b3 48 3d 75 8b 24 bb
       0.0543734 0.04128736 0.048999716 -0.0025107537
0000c0 bc 18 01 bd 6c 43 a2 bd f7 dc 29 bd cc 98 9c bd
       -0.03151773 -0.07923016 -0.041470494 -0.07646331
0000d0 e0 82 20 3d 2c 18 69 bd d2 36 6b 3d bc b6 4f bd
       0.039187312 -0.056907818 0.057425328 -0.05071138
0000e0 b9 e2 a5 bd 51 25 a9 3d e8 3e 2f bc 32 0b 7e 3d
       -0.080998845 0.08259071 -0.01069615 0.062022395
0000f0 58 e2 d2 3c 3e ad 3a 3d 3b b9 a2 3d 42 93 6d bd
       0.025742695 0.045575373 0.07945486 -0.058001764
000100 22 8b 6d 3d f7 1b 61 bd 28 75 e0 bc d5 c3 84 3d
       0.057994016 -0.05495831 -0.027399614 0.064826645
000110 5a ba 96 3d bd b0 0a bd 7e 65 2a bd 92 23 c4 bd
       0.073597625 -0.033859957 -0.041600697 -0.09577097
000120 30 99 42 3d e5 dd 37 bd 1a 61 79 3d 9c 43 7b bc
       0.047509372 -0.04488935 0.06088362 -0.015335944
000130 04 af b7 bd 56 1c 1e 3c d8 99 a5 bc 60 91 d0 bb
       -0.089689285 0.0096503105 -0.02021496 -0.0063649863
000140 ba 90 80 bb 3e 2a c9 3c 22 ff 87 bd d9 aa 98 bd
       -0.0039235028 0.024556275 -0.066404596 -0.074544616
000150 28 22 c9 bc e3 6d e2 3c be 12 9e bd 96 37 68 3d
       -0.02455242 0.027640289 -0.077184185 0.056693636
000160 f7 59 01 bd 56 6f 50 bd bc 7e 69 bd f9 b5 a0 bd
       -0.031579938 -0.05088743 -0.05700563 -0.078472085
000170 6e e0 7a bb b5 0e 7f 3d 24 86 96 bc 98 4a 8f bc
       -0.0038280743 0.062269885 -0.01837451 -0.017491624
000180 60 81 11 3b d5 14 36 bd 00 f2 36 b9 96 a7 5e 3d
       0.0022202358 -0.04445346 -0.00017447025 0.05435904
000190 cf a3 82 bd 47 84 17 bd 92 11 33 3d 30 a0 a0 3d
       -0.063789 -0.036991384 0.04371793 0.07843053
0001a0 5f 4f 74 bc 71 6d 35 bc b5 4b 24 3d 92 db a3 bc
       -0.014911502 -0.011073456 0.040111262 -0.02000216
0001b0 c5 03 7c bd 68 70 76 3d e2 95 a8 3d f5 45 04 3c
       -0.061527032 0.060165793 0.08231713 0.00807332
0001c0 85 9d 2d bd 84 15 ae 3c d3 02 2c bd 28 d5 1e bd
       -0.04238655 0.021250494 -0.04199488 -0.0387775
0001d0 76 cb 48 3d 0e 6f 76 bd 33 27 78 bd 85 13 83 3d
       0.04902216 -0.060164504 -0.06058426 0.064002074
0001e0 c0 7f 9d 3d fa a2 f3 3b 1d 16 ac bc a1 54 a5 3d
       0.07690382 0.0074352 -0.021006638 0.08072782
0001f0 8f e9 87 bd 96 bd 9c 3d f0 e0 b1 3d e7 01 87 bc
       -0.06636345 0.07653348 0.086854815 -0.0164804
000200 46 32 4a 3d 14 2d 96 3c 18 64 cb 3c 3d 27 94 3d
       0.04936435 0.018332042 0.024828002 0.072340466
000210 e0 b8 31 3c 22 5c 7d 3d e1 2b 8a 3d 57 a9 a2 3d
       0.0108473 0.061855443 0.067466505 0.07942455
000220 0a f4 2d 3d a0 7c e3 3b fc 57 ce 3c d0 bf cf bb
       0.042469062 0.0069423467 0.025188439 -0.0063400045
000230 e4 a3 ec bc bb 7e 9e 3d 35 53 9a 3d f2 ad 9e bd
       -0.028886743 0.07739016 0.07535402 -0.07748021
000240 6d 75 8e 3d 3f 8a 86 3d 08 a4 a2 bd 02 a2 5c 3d
       0.06955991 0.06569337 -0.07941443 0.05386544
000250 50 b8 db bb e6 76 f9 bc 00 34 08 ba f6 0e 93 bd
       -0.0067053214 -0.030452203 -0.0005195737 -0.07180588
000260 46 f8 44 3d b1 8a 98 3d 37 79 8a 3d f8 0b b5 bc
       0.048088335 0.07448328 0.06761401 -0.022100434
000270 d8 89 bc 3c b8 3c 5a 3c 6f 7c 9d bd e1 0b 81 3d
       0.023014948 0.013320141 -0.076897494 0.06301094
000280 c8 31 e1 3c 00 58 01 3d 1f 85 8b 3d 56 4f a6 bd
       0.027489558 0.031578064 0.068125 -0.08120601
000290 b4 df 0f 3d 10 16 fe bb ef 39 0e bd 91 61 ab bd
       0.03512545 -0.007754095 -0.03472322 -0.08368219
0002a0 e4 fb 7f bd 6e 3e 95 bd 97 37 b4 bc 4b 9f 8a bd
       -0.06249608 -0.07287298 -0.021999164 -0.06768664
0002b0 fd 0d ae bd ba 0a 87 bd d3 90 97 3d 14 d1 fc 3c
       -0.08498762 -0.06593843 0.0740067 0.030861415
0002c0 fc 1a 05 3d 52 2a 51 3c db 24 5e 3d d7 ef 29 bd
       0.032496437 0.012766438 0.054234367 -0.041488495
0002d0 3d 38 80 3d 9b 48 ae bd a7 47 36 3d a7 a9 fa bb
       0.062607266 -0.08509942 0.044501927 -0.0076496187
0002e0 52 81 24 bb b5 6d 6e ba 7d d4 4a 3d 7d 0d 31 3d
       -0.0025101495 -0.0009095327 0.04951905 0.043225754
0002f0 0f fe 99 3c 13 02 a5 3d e0 dc 99 bc f6 b2 a5 bd
       0.018797902 0.08057036 -0.01878208 -0.08090775
000300 66 71 28 bc d0 3e ab bd cf 83 62 bd 8e 9e 29 3d
       -0.010280943 -0.0836159 -0.055301484 0.041410975
000310 93 1b 00 3d 1a 39 2c bd fa 14 b2 bd dd 04 92 3d
       0.031276297 -0.042046644 -0.08695407 0.07129834
000320 ac a4 98 3a fe 84 01 bd f9 fa f6 3b 3d ce c5 bc
       0.0011645756 -0.03162097 0.0075372425 -0.024146194
000330 51 48 ad bd 93 9a f0 bb 3e 6e 81 bc 3e 7b 96 3d
       -0.08461059 -0.0073426454 -0.015799638 0.07347725
000340 b2 ff 2f 3d 54 6a 83 bd d6 f3 5c bd 7e c5 32 bc
       0.04296846 -0.06416765 -0.053943478 -0.010911344
000350 36 14 a4 3c b9 2f ff bc 85 65 5f 3d c8 32 99 bd
       0.020029169 -0.031150686 0.054540176 -0.07480389
000360 b3 46 f6 bc f0 16 b0 3b fb d0 34 bc 0f fe 6f 3c
       -0.030063009 0.005373828 -0.011036153 0.014647975
000370 93 25 4e bc 49 22 96 bd e9 eb 73 bd f9 53 71 3d
       -0.012582201 -0.07330758 -0.059551153 0.058917973
000380 31 ea ab bd a0 37 3c bd 57 24 58 bd 3a cc 4e 3d
       -0.08394278 -0.045951486 -0.05276903 0.050487734
000390 a4 16 88 bd dc f0 34 bd 72 75 33 3d c7 c8 42 bd
       -0.06644943 -0.044175014 0.043813176 -0.047554757
0003a0 dd 23 a8 bc 3a 53 9d 3d 0e 78 dd 3c 03 12 ac bc
       -0.020524913 0.0768189 0.027034786 -0.021004682
0003b0 ec 50 a1 3d 9d 7f f0 3c 34 80 ad bd c5 ae 06 bd
       0.07876763 0.029357726 -0.084717184 -0.032881517
0003c0 41 de 9c 3d ca 0c 05 3d c7 3b 92 3d 2c 82 ad bc
       0.07659579 0.0324829 0.07140308 -0.021180235
0003d0 2d c3 a4 3d 60 fd cc bb fd 16 9b bd 60 ff 73 3b
       0.08045039 -0.0062557906 -0.07572744 0.0037231073
0003e0 c8 f2 94 bd f4 b2 cd 3c f0 01 f6 3c 00 85 80 bc
       -0.07272869 0.025109746 0.03003022 -0.01568842
0003f0 7c 9b 8c bd 40 74 81 3b 38 03 15 bc 63 a1 9a 3d
       -0.06865594 0.0039506257 -0.009095006 0.07550313

lstm.weight_hh_l0 f4 [512, 128]
000000 dd f5 e4 bc 85 b8 a3 3c ea 75 72 3a 0f 70 43 3d
       -0.027949268 0.019985447 0.0009249138 0.04771429
000010 d1 3a 50 3d 50 67 12 3d 60 d2 11 bd 3f e8 1a 3d
       0.05083734 0.035743058 -0.03560102 0.037819143
000020 63 fe 6f 3d ec f7 80 bd 5a 79 56 bd 44 f8 2c bb
       0.05859221 -0.06297287 -0.052361824 -0.0026393095
000030 0b 5d 57 bc a9 97 7f bd ff e8 5b 3d 36 97 2e 3d
       -0.013144742 -0.062400494 0.053689 0.042624675
000040 88 ca 84 bd 0a 84 14 bd 32 fc 95 3c 58 df 6b 3c
       -0.06483942 -0.036258735 0.018308733 0.014396511
000050 f1 ce 3b 3d 7d f5 08 bd 77 73 81 bd 09 70 30 3d
       0.04585165 -0.03343724 -0.06320851 0.043075595
000060 ec ac 09 3d 40 29 c3 bc 00 4c c8 bc 0c 59 88 3d
       0.033612177 -0.02382338 -0.024450302 0.06657609
000070 fa fb 27 bb 07 92 10 ba 81 8d 17 bd 81 b1 a5 3c
       -0.0025632367 -0.0005514924 -0.037000183 0.020226242
000080 fd 55 a1 bc bc 2a 48 3d c8 63 82 3d a6 2b 4b 3d
       -0.019694323 0.04886888 0.06366688 0.049602173
000090 9b 9f 12 3d 58 c6 67 bd 3b 83 d2 3b 7b bd 1d 3d
       0.035796743 -0.05658564 0.0064243353 0.03851078
0000a0 18 65 45 bc df f4 11 ba f8 f5 3a 3d 71 39 95 3d
       -0.012048028 -0.00055677997 0.04564473 0.07286347
0000b0 1c 2d 28 bd 48 f6 78 bd 08 12 63 3d 07 a4 75 3c
       -0.041058645 -0.060781747 0.055437118 0.01499272
0000c0 d6 e1 7a 3b 05 f9 86 bd 4d 7f d5 3c 04 ec 21 bc
       0.0038281581 -0.065904655 0.026061678 -0.009882931
0000d0 11 e8 69 3d b0 1e 7e 3d e6 09 98 3c ae 81 1e bd
       0.05710608 0.062040985 0.018559407 -0.03869789
0000e0 ee 6e 99 3d f4 cf 7e 3d 0c 1d b1 bc 0b 12 a0 bd
       0.07491861 0.06221004 -0.021620296 -0.078159414
0000f0 eb 0e 53 3c 98 02 2b 3d 69 54 72 3d 79 af 26 3c
       0.012881975 0.04175052 0.05916253 0.010173672
000100 98 e6 02 3d e5 3b 8c bd a2 af bd 3d 10 32 9a bd
       0.031958193 -0.068473615 0.09262015 -0.0752908
000110 66 e6 91 bd 75 3f 9a 3d 11 b9 1f 3d 3d 3e 89 3c
       -0.07124023 0.07531635 0.038994852 0.01675331
000120 e8 35 9c 3d 6f 81 8f 3c f9 93 d5 bc 1a ca 1f 3d
       0.07627469 0.017517773 -0.026071535 0.0390111
000130 0b 9d 92 bc fa d5 a4 bd 1c bc 8a 3b e1 c7 99 bd
       -0.01789715 -0.08048625 0.00423385 -0.07508827
000140 f2 83 b3 bd 23 2e 0e 38 3a 16 59 bd 39 32 6c bc
       -0.08765401 3.3898406e-05 -0.052999713 -0.014416271
000150 b2 f7 0f 3d d9 6b 64 3a d3 89 08 3d a1 4a 34 3d
       0.03514833 0.00087135803 0.033334564 0.044016484
000160 76 d9 21 bd ab 72 27 bd 98 77 ea bc 84 43 ca 3b
       -0.039514028 -0.04088084 -0.02862148 0.0061725993
000170 76 84 d0 bc 00 4f 8d bd a0 49 6b bc 6c ab 46 bd
       -0.025453787 -0.06899834 -0.014360815 -0.048503324
000180 82 40 62 3c 7f 1d 9b 3d 35 a4 6f 3d cb 93 a5 3c
       0.013809325 0.07573985 0.05850621 0.020212075
000190 3e 70 8a bd be e0 25 bd 57 28 3d 3d 39 ce 2e bd
       -0.0675969 -0.040497534 0.04618105 -0.042677138
0001a0 61 6c 8f 3d 8c 61 81 3d d6 f0 52 bd 08 f5 8e 3c
       0.070030935 0.06317434 -0.05149921 0.017450824
0001b0 b3 c4 a2 bd 61 a1 01 bd bb 10 ad 3d eb 1a 13 3c
       -0.07947674 -0.031648044 0.08450457 0.008978586
0001c0 a2 16 96 3d ba 85 75 bd fc e6 14 3d 16 83 80 bc
       0.073285356 -0.059941985 0.036353096 -0.015687507
0001d0 c2 2a ea 3c 1e 98 9a bd bd 9e 9d bd 21 bf 2f 3c
       0.028584842 -0.07548545 -0.076962925 0.010726721
0001e0 17 cb d0 3c 07 ef 89 bd 12 d9 9e 3d 43 9a a9 bd
       0.025487466 -0.06735044 0.077562466 -0.08281376
0001f0 1f bf c5 bd 22 d6 30 bd 57 26 15 bb 8f db 9d bd
       -0.09655594 -0.043172963 -0.0022758448 -0.07707893
000200 01 b1 45 bd a8 cf af bd 06 33 30 bc f1 16 15 bd
       -0.048264507 -0.08584529 -0.010754352 -0.03639883
000210 d4 f9 5e bc 64 0e 90 bd cf 5a b5 bd 03 7c 13 3d
       -0.013609368 -0.07033995 -0.08855211 0.03600694
000220 e9 aa 97 bd 57 d1 da bc 6b 70 29 bd f3 39 97 3c
       -0.074056454 -0.02671115 -0.041366976 0.01846025
000230 df 61 2f bd 24 67 8e bc aa dc 87 3d 54 69 82 bc
       -0.042817947 -0.017383166 0.06633885 -0.015919365
000240 08 4c 6f bd e6 f9 33 bc fd 54 84 bd cc 83 45 bd
       -0.05842212 -0.010984873 -0.06461523 -0.048221394
000250 c3 9f 9c 3b 6c 56 8b bd 84 a8 56 3d 5f ef 12 bd
       0.0047797873 -0.06803593 0.052406803 -0.035872813
000260 e2 a0 99 bd 48 fd 76 3d 79 12 50 3d bc 41 2d 3d
       -0.07501389 0.06030014 0.050798867 0.042299017
000270 9c 45 41 3d 95 c7 8e bc b0 a8 a3 bc c7 fc 32 3d
       0.047185525 -0.017429153 -0.019977897 0.0436981
000280 1f ca 88 bd ae 29 9f 3d 18 3e 16 3d 9f ab 8d bd
       -0.066791765 0.07771622 0.03668031 -0.069175
000290 f5 ef 86 bd c3 14 2d 3c d7 9d 9e 3d 12 14 68 bd
       -0.06588737 0.010564032 0.07744949 -0.056659766
0002a0 49 98 ac bd e7 ef 48 bc 33 5e 94 3d 73 c1 bd 3d
       -0.084274836 -0.012264228 0.072445296 0.09265413
0002b0 a9 5d bf 3c 1b 47 5f bd 40 9b dc 3c e9 6c 13 bd
       0.02336009 -0.05451117 0.026929498 -0.035992537
0002c0 54 b5 98 3b aa c3 b5 bc 38 81 e4 3b 15 b4 fe 3c
       0.004660288 -0.022188026 0.006973412 0.03109173
0002d0 ee 3c 71 bd cc b6 63 bd d2 cf da bd 85 b9 07 3d
       -0.058895998 -0.05559425 -0.1068417 0.03313591
0002e0 6d 38 39 bd 53 db 8e 3b 1e b5 21 bd 37 9d 61 bd
       -0.045219827 0.0043596416 -0.039479367 -0.055081572
0002f0 29 f0 41 38 64 9d 3c bd 11 28 26 3d 32 7c 21 3c
       4.6238452e-05 -0.046048537 0.040565554 0.009856271
000300 40 90 ab bc e4 c4 e3 bb 65 57 18 3d 57 20 95 3c
       -0.020942807 -0.0069509614 0.03719272 0.018203897
000310 0b 3f 5f 3d d2 4f cb bc 6b 57 43 bd 61 52 d0 3d
       0.05450348 -0.024818335 -0.04769079 0.101719625
000320 c8 95 c8 bd 4c b4 73 bd 99 87 89 bc 6b f7 98 bd
       -0.097941935 -0.059498116 -0.01678829 -0.07469066
000330 b8 ba b6 3d dc b5 ad bd 6f 28 68 bd 29 d5 0e 3b
       0.089223325 -0.084819525 -0.056679185 0.0021794534
000340 d9 68 8d bd f2 71 69 3d a6 0e 40 bd cd 7f 04 3d
       -0.06904764 0.056993432 -0.04688897 0.032348443
000350 0b fd 60 bd 50 a2 0e bd 97 b8 02 bc 5b fb 0e bb
       -0.05492882 -0.034822762 -0.00797858 -0.00218173
000360 9f 2f 0a 3b e1 82 62 3d 91 3f 49 3d 21 e2 b5 3c
       0.0021085513 0.055300597 0.049132887 0.022202553
000370 8c 20 61 bc ee 80 97 3d 5d 31 f7 3c 89 40 c9 bb
       -0.01374067 0.07397638 0.030174905 -0.0061417264
000380 93 e0 0f 3d fa 01 ad bc 7d d9 10 3c 4f 66 1d 3d
       0.03512628 -0.021119107 0.008840916 0.038427647
000390 9d 83 6b 3d cf a7 a3 3c 99 90 16 3c ec 2f 47 3d
       0.057498563 0.019977478 0.009189748 0.048629686
0003a0 8f 26 30 3d 3f 16 93 3d 1c d5 a7 bc e0 52 80 bd
       0.043005522 0.071819775 -0.02048736 -0.06265807
0003b0 2d 52 6b 3c f0 14 26 3d 5c df 67 bd ca 2a 07 bc
       0.014362854 0.04054731 -0.056609496 -0.008249948
0003c0 97 08 82 bd 25 2b 5f 3c d5 6a 5d bd 86 c6 81 bc
       -0.06349295 0.013621126 -0.05405696 -0.015841734
0003d0 16 e2 36 3d ff bb 5b b8 02 b5 2b bd 4e a7 53 3c
       0.044649206 -5.2388754e-05 -0.04192067 0.0129183065
0003e0 96 10 33 bc c0 89 86 bd 02 70 09 bd 7a 4b cb bc
       -0.010929247 -0.065692425 -0.033554085 -0.024816263
0003f0 ae 17 ce 3b c1 48 96 bd e3 b9 80 bd ab f6 84 3d
       0.006289444 -0.073380955 -0.06285455 0.06492361

lstm.bias_ih_l0 f4 [512]
000000 91 1d 96 3c ad 1a c6 bd 08 3e 75 3c 47 27 41 bd
       0.018324645 -0.09673057 0.014968403 -0.0471566
000010 ef 49 83 bd 82 2f 9d 3d 6a 5f 73 bd a0 5c 52 3d
       -0.06410586 0.07675077 -0.059417166 0.051357865
000020 28 e9 ab 3d 68 9a b2 3d c5 cc 97 bd 89 70 fc 3a
       0.083940804 0.08720857 -0.074121036 0.0019259612
000030 d0 35 8c 3d 2b 44 10 bd 53 a0 8d 3d 62 ee 3b bd
       0.068462014 -0.03522126 0.06915345 -0.045881636
000040 ad e5 13 3d 3f 1f 55 bd de d1 e9 bc 6b b9 af 3d
       0.036107708 -0.05203175 -0.028542455 0.085802875
000050 60 57 9c bc c7 a9 e6 3d 20 ba 67 bd 1b 8a 24 bc
       -0.019084632 0.11262851 -0.056573987 -0.010042693
000060 e9 4e 92 bc b0 ff f7 bc 26 fb 94 3b 76 ad 5e bd
       -0.017859893 -0.030273288 0.004546541 -0.054364644
000070 a0 2f 61 bb fd da 91 3d 7c 80 e7 3d 0e da c4 3d
       -0.0034360662 0.07121847 0.11303803 0.09611903
000080 2e 35 21 3d 6b 5b 0b bc 4f 04 22 3c 4f c4 96 3d
       0.039357357 -0.008505682 0.009888723 0.07361662
000090 63 b0 c2 3c 09 05 3b bd d8 58 7e bd 00 6f 4c 3d
       0.023765748 -0.0456591 -0.062096447 0.049910545
0000a0 1d 0c b9 3d e1 d6 10 bc 0e 50 95 3d 65 e4 16 3c
       0.090355136 -0.008840294 0.0729066 0.009209727
0000b0 32 26 d6 3c 59 00 40 3d a2 00 55 bd b9 dc c5 3d
       0.02614126 0.04687533 -0.052002557 0.0966124
0000c0 ca e0 57 bd fa 44 17 bb f9 11 5c bd 36 5d 7d 3d
       -0.05270461 -0.0023081885 -0.053728078 0.06185647
0000d0 c5 79 a5 3d 4b 26 ac bc 96 34 52 3d 5e cf de bc
       0.08079866 -0.021014353 0.05131968 -0.02719849
0000e0 99 67 f6 3b ce 5e 89 3c cc d9 80 3d d8 02 85 3d
       0.007519674 0.01676884 0.062915415 0.06494683
0000f0 94 c9 c8 3c f6 6c 79 3d 23 61 c1 3d aa f8 cf 3c
       0.024510182 0.06089493 0.094423555 0.025387127
000100 c2 5a 48 3b e6 96 97 bc 55 b3 de 3d 3b d2 d4 3d
       0.0030571674 -0.018504571 0.108740486 0.10391661
000110 5a 4c 07 3b 48 59 d9 3d 1f 1d 76 3d 1b f4 74 3d
       0.0020644874 0.10612732 0.060086366 0.05980311
000120 c9 da 53 bd 53 f4 8b 3d 87 74 f0 3c 3c 60 04 3d
       -0.05172232 0.068337105 0.02935244 0.03231834
000130 3c a9 26 3d c8 97 72 bd 56 e4 40 3d 53 fa 81 3c
       0.04068874 -0.05922678 0.047092758 0.015866434
000140 33 df 74 bc b1 ec ea bc ee 73 c0 3d 17 f1 9a 3c
       -0.014945793 -0.028677316 0.09397112 0.018913789
000150 4c 23 7f bd 29 8d 67 3d cd e3 6c 3d dc 34 0a 3d
       -0.06228952 0.056531105 0.057834435 0.033741817
000160 fd a7 9e bd a7 b2 28 3d 32 65 69 3d 95 bb c7 3b
       -0.07746885 0.041186 0.056981273 0.0060953596
000170 5f 5e 35 bd 5d ec d1 bc 0e b9 e8 3d ad 3c 8c bc
       -0.044279452 -0.025625402 0.113634214 -0.017118776
000180 fb 53 85 bd 8e b0 b5 ba 12 e2 61 bb 4c 3c 8c 3d
       -0.06510159 -0.0013861821 -0.0034467024 0.06847438
000190 9b 04 ae 3d 2e 8a 7e 3c 84 a7 a8 3b 41 18 3f bd
       0.08496972 0.015535874 0.0051469225 -0.04665399
0001a0 34 2e 00 bd e8 30 6e bd aa 3e 2d bd bf 54 b7 3c
       -0.031294063 -0.05815211 -0.04229609 0.022379277
0001b0 eb ec 38 3d 59 23 df bc 9f 41 93 bc 2a ce 03 3d
       0.045147818 -0.027238535 -0.017975627 0.032179035
0001c0 6c 04 90 bd 44 79 8b bd 12 98 88 3b e1 c2 83 3d
       -0.070320934 -0.06810239 0.004168519 0.064336546
0001d0 ed 13 80 3c c1 23 46 bd 70 7d a7 3d c3 07 8c 3d
       0.015634501 -0.04837394 0.08178222 0.06837418
0001e0 41 91 4a bd db d3 90 3d b1 e4 ff bc 08 a3 1f 3d
       -0.04945493 0.07071658 -0.031236978 0.038973838
0001f0 29 64 a8 3c e1 d9 05 3d ac e7 52 3d c8 bb 1e bd
       0.020555573 0.03267849 0.05149047 -0.0387533
000200 4a 7d 4a bd 0b d3 21 3d 2a 10 a8 3b 6e ec 19 bd
       -0.04943589 0.039507907 0.00512888 -0.037578993
000210 d7 6c ac bd fc d2 1f bd b4 92 ef bb 5d 9f 7a bd
       -0.08419197 -0.03901957 -0.0073111895 -0.061187137
000220 9b de 73 3d 59 39 9e 3d cb d5 b5 ba c0 ae ad bc
       0.059538465 0.07725782 -0.0013872919 -0.021201491
000230 18 12 a2 3c af 24 54 bd 06 ce 0f 3d 34 ff d7 3d
       0.019784018 -0.051792797 0.03510859 0.10546723
000240 86 da 83 3c d8 72 d3 3c cd 70 c2 3d 65 e0 9f bc
       0.016095411 0.025811598 0.09494171 -0.01951618
000250 92 61 b0 3d db f2 6a bd 16 8b 37 bc 0e 53 55 bd
       0.0861236 -0.05736051 -0.011202594 -0.05208116
000260 42 d7 86 3d 04 ec b0 3d 09 fe 29 bd 11 6c b8 3d
       0.06584026 0.086387664 -0.041502032 0.09004987
000270 27 fe 36 bd f9 44 9a bd a1 cc 90 bb 5e 0b 54 bd
       -0.044675972 -0.07532687 -0.004418925 -0.051768653
000280 e6 19 ae bc c1 a2 75 bd f2 13 64 bd 31 cd 6d 3d
       -0.021252584 -0.059969667 -0.055683084 0.058057014
000290 a2 ef f6 3c c0 f0 b6 3d a0 6f 60 bd 7e f2 91 3c
       0.030143563 0.08932638 -0.054793954 0.017815825
0002a0 41 bf e7 3b 38 cf 15 3d e0 83 b5 3d 3f 67 da 3d
       0.00707236 0.036574572 0.08863044 0.10664224
0002b0 fe d1 ca 3b 08 82 1e 3c f0 51 1c bd 1b 3a d3 bc
       0.006189584 0.009674557 -0.03816408 -0.025784543
0002c0 86 03 20 3d e5 25 b9 3c a4 0c 3d 3d 7c d5 8f 3d
       0.03906586 0.022601077 0.046154633 0.07023141
0002d0 b7 1b cb 3c 79 51 86 3b 62 af b5 bc 7c 19 2e bd
       0.024793489 0.0040990678 -0.022178356 -0.042504773
0002e0 f9 bf ca 3d ce 3a 74 3d 34 48 27 bd 0a 33 3d bc
       0.09899897 0.059626393 -0.040840343 -0.011547813
0002f0 3c 3a a1 3d 31 4d 70 3d 42 3e 84 bc 5a 64 bc 3c
       0.078724355 0.058667365 -0.016142968 0.02299707
000300 67 00 08 3d 99 6f 6f 3d 88 15 b7 3d 0b 5f af 3d
       0.03320351 0.058456037 0.08939654 0.0856305
000310 43 b5 05 3d 97 7b ce 3d ab 3e 80 3d 75 98 cf 3d
       0.032643568 0.10082167 0.06261953 0.10136501
000320 70 82 63 bd 50 e4 9a 3d f1 2a 09 bc 3d d1 b5 3d
       -0.055544317 0.075630784 -0.008372054 0.088778
000330 2b c1 99 3d 93 1f 9a bd f5 6b 8b bd d9 f1 38 bd
       0.07507547 -0.075255536 -0.068077005 -0.04515252
000340 72 0b 5a bd 20 81 b1 3d 8a f8 ab 3c c3 1e fb ba
       -0.05323357 0.08667207 0.020992536 -0.0019158948
000350 6c 27 12 3c 3d 8b a6 3d 6f 86 8a 3d 8c d0 d0 3d
       0.008920532 0.08132026 0.067639224 0.10196027
000360 56 56 f9 3c 5d 85 9d 3d 1f 53 ae 3d 4a 79 1f 3d
       0.030436676 0.07691453 0.08511948 0.03893403
000370 7f 1e 8e 3d 36 e4 72 3d 88 ab 5a bd fa ab 99 bc
       0.069394104 0.05929967 -0.05338624 -0.018758763
000380 11 02 23 bd e5 a7 78 3d d3 b1 5b 3d b2 af 72 bd
       -0.039796893 0.06070699 0.053636383 -0.059249587
000390 e1 d5 96 3d 0e 13 7a bb 69 65 d1 3d f9 31 01 3d
       0.07365013 -0.003815833 0.102244206 0.0315418
0003a0 07 ce b1 3d 65 6e a3 3c 52 b7 68 3c 1f ac d3 3d
       0.08681875 0.019950101 0.014203863 0.10335564
0003b0 ef 11 00 3d 74 a0 0a bd ee e3 a5 bc bc b8 4f bd
       0.031267103 -0.033844426 -0.020250287 -0.050713286
0003c0 60 8c b2 bd a4 44 e1 bc b8 65 a7 3d c9 af a8 3c
       -0.08718181 -0.02749855 0.08173698 0.020591633
0003d0 0c e8 a1 3d ff d4 56 3b d2 90 b0 bd 44 ed 44 bd
       0.079055876 0.0032780764 -0.08621372 -0.048077837
0003e0 14 4d d8 bc 26 2c 3e bd bf 73 b0 3d 28 a5 a3 3d
       -0.026403941 -0.046428822 0.08615827 0.079904854
0003f0 46 f3 92 3d 40 b2 5b 3d 27 1c 8c 3b 6a 35 09 3c
       0.07175307 0.05363679 0.004275817 0.008374551

lstm.bias_hh_l0 f4 [512]
000000 35 41 7f bc b5 d3 15 bd 82 fa 4f 3d 3b 77 c3 3d
       -0.015579511 -0.036578853 0.050776012 0.09544226
000010 4f 9b b9 3d ec f1 16 3d 09 16 80 bd 54 63 45 3d
       0.09062826 0.03685181 -0.06254203 0.04819043
000020 8b a6 aa bc 9e 05 77 bd f5 a1 a9 3d 27 ec 2e bc
       -0.020831367 -0.06030809 0.08282844 -0.01067642
000030 27 16 a4 3d 9e a6 00 3c 3d 57 cb bd 2e 18 16 bd
       0.08012038 0.007852225 -0.09928749 -0.036644153
000040 22 1b dc 3c 25 24 71 3d 14 41 ca 3c ee 83 d8 3c
       0.026868407 0.05887236 0.024689235 0.026430096
000050 33 b6 a2 bc 29 c3 f7 bc 18 c3 11 3d 80 53 25 bd
       -0.01986227 -0.030244427 0.035586447 -0.040362835
000060 9e 17 e7 3c c6 b9 12 3d 28 e3 21 3d 2d ac d5 3a
       0.028209504 0.0358217 0.039523274 0.0016301923
000070 c1 fb a1 3d 5d ae 68 3d af 9e 15 bb 70 86 9c bc
       0.07909346 0.05680691 -0.0022830178 -0.019107074
000080 e7 8c 02 bd fe 8b 4c 3d 05 f7 27 3d 43 31 4f 3d
       -0.031872656 0.049938194 0.04100706 0.05058409
000090 7a 0b 58 3d 81 e6 a3 3d 9f bc 69 bd b9 d3 68 bd
       0.05274532 0.080029495 -0.05706465 -0.05684254
0000a0 b7 d7 b8 3d 72 2f 8a 3d 1a ed 8a 3d 88 3e 0e 3d
       0.09025519 0.06747331 0.06783505 0.034727603
0000b0 13 57 01 bb 29 78 cd 3d 05 ef 9f 3d 46 f7 98 3d
       -0.0019735738 0.10032684 0.07809261 0.07469039
0000c0 4a e2 2c bd b5 e4 42 3d ba 2a a5 bb 02 ce 6b 3d
       -0.042207994 0.047581393 -0.005040494 0.05756951
0000d0 b7 35 16 3d d6 87 51 bc 66 b7 8b 3d 26 54 dd bc
       0.03667232 -0.0127887335 0.0682209 -0.027017664
0000e0 3e 8a 3e bd 1d e1 b9 bd 9b aa b5 3d f4 5d c1 bc
       -0.046518557 -0.0907614 0.08870431 -0.02360437
0000f0 8b 56 7b bc a6 0a 46 3d 61 46 d3 3d fd bf 5f bd
       -0.015340458 0.04835 0.10316158 -0.054626454
000100 ef ae a6 3c cf a5 b2 3d c0 33 8b 3d fe 17 7e bc
       0.020347087 0.08723032 0.0679698 -0.01550865
000110 69 96 10 3d 3e 46 ca 3d cc 39 06 bd 43 79 cd 3d
       0.035299692 0.09876679 -0.032769963 0.100328945
000120 39 45 af 3c 37 db a6 3d 53 70 6e 3d 5b ef 4d bc
       0.021395313 0.08147281 0.05821259 -0.012569274
000130 36 0a 5b 3d db 38 b3 bd 00 0f 5b 3d 69 32 ec 3c
       0.053476535 -0.08751079 0.053481102 0.028832631
000140 bc 0a 6b bb c0 a9 86 bd 5f 51 0b bc 4f 03 61 3d
       -0.0035864552 -0.06575346 -0.008503287 0.054934796
000150 48 de 7e 3d b2 ab 55 bd 1f 67 e8 3c db 7d 54 3b
       0.062223703 -0.052165695 0.028369484 0.0032423649
000160 b7 4c 66 3d bf e0 9c 3d c5 16 d3 3d 91 f4 cf bd
       0.056225505 0.076600544 0.10307077 -0.10154069
000170 20 bf ad 3d 3a 17 b7 3d 79 62 1b ba b5 ad 81 3d
       0.0848372 0.08939977 -0.00059274543 0.0633196
000180 22 f1 ba bb c6 a7 1e 3d 6c 4f 87 bc 78 f4 88 3d
       -0.005705015 0.03873422 -0.016517363 0.06687254
000190 9e a2 25 bd 84 c5 ca 3d c2 ee 24 3d 54 98 7d bd
       -0.040438287 0.09900954 0.04026676 -0.06191285
0001a0 26 3e 8d 3d 48 4e b2 bd 56 fa 94 3d e8 72 49 3d
       0.068966195 -0.08706337 0.0727431 0.04918185
0001b0 9b 41 cf 3d 57 d6 8c bb 42 eb 89 bc 12 22 11 3a
       0.10119935 -0.0042980122 -0.016835812 0.0005536388
0001c0 d0 c1 af b9 0c 32 12 3d 42 14 1a bd 41 38 6a 3d
       -0.00033523003 0.03569226 -0.037616976 0.057182554
0001d0 d2 ba 45 3d e4 8d cb 3c 4d 45 60 bd 7e 8e 80 bd
       0.04827387 0.024847932 -0.05475359 -0.06277178
0001e0 e7 ef 46 3d e5 5a 41 3c 2a 2d d5 bc c9 15 59 3c
       0.048568632 0.011801456 -0.026022512 0.013249823
0001f0 b9 51 00 bd bb db 82 bd d9 90 2e 3c 80 29 8a 3d
       -0.031327937 -0.063895665 0.010654652 0.06746197
000200 8a 7e 86 3c 76 23 b0 bd 60 89 3d bc 42 f3 c5 3d
       0.01641776 -0.08600514 -0.011568397 0.09665538
000210 51 76 a3 3d bd 2a 1c 3d 6e 8f c5 bc e9 0e af bd
       0.079815514 0.038126696 -0.024116244 -0.08547766
000220 6f 82 f7 3b b7 3d e5 3d 83 86 b3 3d ce d6 69 3d
       0.0075533907 0.11193412 0.087658904 0.05708962
000230 5c b6 2b bd 2d bc 1f 3d 01 0b a2 bd 93 40 39 3d
       -0.04192196 0.038997818 -0.07912255 0.0452276
000240 db a9 4e bc 16 d9 c1 3a fc be 3f bd 86 42 64 3d
       -0.012613739 0.0014789428 -0.046812996 0.055727504
000250 c8 6d 63 3d 1b 93 f6 bc 69 78 bc 3c 7a 85 46 bd
       0.055524617 -0.030099442 0.023006635 -0.048467137
000260 3e 4f 85 3d 9b 1a a5 3c 84 0e 4d 3c ce e5 ab 3d
       0.06509255 0.020154288 0.012515668 0.08393441
000270 5e db 66 bd 81 61 a0 bc 9a c9 c6 3c b5 0a f0 bc
       -0.05636155 -0.019577743 0.024266053 -0.02930198
000280 1c 74 d3 3b da 62 be 3c 56 ed 88 3d 17 80 4a 3d
       0.0064530503 0.023240495 0.06685893 0.049438562
000290 40 77 6a 3c a3 fb 30 3d 0a cc fb bb 1d 65 c9 3d
       0.014310658 0.04320873 -0.0076842355 0.09833739
0002a0 9b a0 16 ba 44 53 86 3d cc f1 bd 3d a6 da 84 3d
       -0.0005745978 0.065588504 0.09274635 0.064870164
0002b0 e0 1a 64 3d f5 d2 9f 3c 57 6b 80 bd 9e 8d c4 bc
       0.055689692 0.019509772 -0.062704735 -0.02399331
0002c0 ef f7 41 bd 68 c6 35 3d 00 0e 63 3d 33 12 8d 3d
       -0.04735559 0.044378668 0.055433273 0.06888237
0002d0 56 d9 11 bd 3b 58 b3 3d ae 5e a2 3d 2c a4 21 3d
       -0.03560766 0.08757063 0.07928215 0.039463207
0002e0 d5 cd c7 3c f8 0a 89 3d df 32 d2 bc 9d 3b 06 bd
       0.02439014 0.06691545 -0.025659023 -0.032771695
0002f0 81 5f b5 3d c8 03 9e b9 60 b5 11 bc 5a ca 0a 3d
       0.088561065 -0.00030138926 -0.008893341 0.033884384
000300 ba 5c fa bc 44 72 39 bd db 5b 96 3d e6 d8 63 3d
       -0.030561794 -0.045274988 0.07341739 0.055626772
000310 ed 84 e8 3c 4f 2a 56 bd da cb 7d 3d 6c 14 59 3c
       0.028383696 -0.052286442 0.061961986 0.013249498
000320 b9 50 aa 3d 1e 7b f9 3c d3 cf 2c bb a1 37 86 3d
       0.08316178 0.030454215 -0.002636899 0.06553579
000330 20 4f 9c 3d 1d b0 94 3c 31 aa 48 bc d0 e7 ad bc
       0.076322794 0.018150384 -0.012247608 -0.0212287
000340 8e 25 5b 3d 07 c3 82 bc 77 4c 2b 3c 4b 6f fd 3b
       0.05350261 -0.015962137 0.010455242 0.0077342144
000350 0a a2 41 bd 17 0a d4 bc ff 95 5a 3d 40 38 5e 3d
       -0.047273673 -0.025883717 0.053365704 0.054252863
000360 3d 82 59 3d 1e ad 06 bc 5b c1 dd 3d 0e 42 5e bc
       0.05310272 -0.008219985 0.10827895 -0.013565553
000370 3b ce 35 bd 11 9a ed 3c 58 3b bc 3d bd b8 f0 ba
       -0.04438613 0.029004129 0.091910064 -0.0018365603
000380 6b 8a 82 3d 75 6c 59 3d 00 21 28 3d b6 3b 36 bd
       0.063740574 0.05308195 0.041047096 -0.04449054
000390 c4 46 83 bd f2 e4 a9 bc 29 be 68 3d 5a e4 79 3d
       -0.06409982 -0.020739052 0.056821976 0.06100879
0003a0 03 32 1d bd e2 aa 79 bd ac 06 34 bd a5 fe 56 bd
       -0.038377773 -0.060953982 -0.043951675 -0.05248894
0003b0 88 72 50 3d 78 06 ab 3d 75 db 56 3d 59 e4 62 bd
       0.050890476 0.08350843 0.052455384 -0.05539355
0003c0 e4 1c c3 bc 47 7a 64 bc d4 96 f0 bc 73 93 82 3d
       -0.023817487 -0.013945169 -0.029368795 0.0637578
0003d0 07 af 08 3d f8 64 85 3d 43 bc 05 3d a1 b3 1b 3d
       0.033370044 0.06513399 0.032650243 0.038013104
0003e0 bc d2 aa bc 59 3b 89 bc 49 a7 90 3c d8 38 75 3b
       -0.02085244 -0.016751932 0.017657893 0.0037417915
0003f0 db 7b be 3d 9a 26 4a bd 7b 7f 23 3d af 1f 50 3d
       0.09300967 -0.04935322 0.039916497 0.050811466

fc.weight f4 [2, 128]
000000 2c f6 e0 3d 15 17 99 3d fd bd 2a 3d 3c 9c 86 3d
       0.109844536 0.07475106 0.041685093 0.06572768
000010 a6 a5 be 3c 29 0e 55 3c c6 ba cc bc aa a6 41 bb
       0.023272347 0.013003864 -0.024991404 -0.0029548802
000020 40 f6 00 bb 11 7e a2 3c b9 20 2e bd 6b 03 05 3d
       -0.0019678026 0.019835504 -0.042511676 0.032473963
000030 93 6e a4 3d 4c 8f 60 bd 06 19 af bd a8 f1 5c 3d
       0.08028903 -0.05482416 -0.08549695 0.0539414
000040 d8 1a da bd 8b ec be 3d 87 54 93 3d 6a c9 49 bd
       -0.10649651 0.09322461 0.07193857 -0.04926435
000050 a3 1f 36 bb e9 9e 8e 3d 1d 5a a4 bd b8 ba cd bd
       -0.0027789853 0.069639035 -0.08025 -0.100453794
000060 ed 6d 1b 3d 49 7b b8 bd 58 13 b5 bc dd 81 e8 bd
       0.03794663 -0.0900789 -0.02210395 -0.113528945
000070 2c 00 cb 3c 96 49 17 bd f0 75 9c bd 05 56 0a bd
       0.024780355 -0.03693541 -0.07639682 -0.03377344
000080 29 c7 c7 3d 1a 49 4e 3d f7 1d 7e bd 2d 96 45 3d
       0.09754784 0.050362684 -0.062040295 0.048238922
000090 1c b0 c2 3b 8e 1f 9f 3d 3f 40 12 bd a6 24 cc 3b
       0.005941404 0.077696905 -0.0357058 0.006229955
0000a0 ee 7f 8b bd 46 7c 9b 3d 3a 22 92 3d 5f 62 3a 3c
       -0.0681151 0.07592063 0.071354344 0.011375993
0000b0 ce cb 8f bd 28 22 90 bc 77 fd 18 bd a2 e8 69 3c
       -0.070212945 -0.017594412 -0.037351098 0.014276655
0000c0 3c 53 bb bb 94 c7 4d 3c 51 48 9f 3c 84 1d eb bc
       -0.0057167094 0.01255979 0.019443663 -0.028700598
0000d0 3d 84 f9 ba 0c 9f b2 ba 12 50 ef bd 05 d2 9f 3c
       -0.0019036602 -0.0013627722 -0.11685194 0.019509325
0000e0 99 f8 06 bd 90 b1 e0 bc 99 ba 16 bd 6f 3b e6 3d
       -0.032951925 -0.027428418 -0.036799047 0.11241805
0000f0 de 32 05 bd 5f a1 e5 bd 1b 0f de bb 40 b5 e9 bc
       -0.032519214 -0.1121242 -0.006776703 -0.02852881
000100 1f 36 dd bd 9e 2e ab bc fd 0e 77 3b 76 27 c9 3d
       -0.108013384 -0.020896252 0.0037698143 0.0982198
000110 41 3e e4 bd 58 a5 b6 bd 44 d8 c3 bc 8c 09 3b 3d
       -0.111446865 -0.089182556 -0.023906834 0.0456634
000120 3d 1e 82 3d 0f 57 2c 3d bf dc e6 bd 58 0a ff 3c
       0.06353424 0.042075213 -0.11272573 0.031132862
000130 c0 71 bd 3d 92 cc b9 3c 6c b6 68 bd 9d 36 89 3c
       0.09250212 0.022680555 -0.056814596 0.016749674
000140 25 8e 0a 3d 58 33 94 3d fa e9 7c bc 53 20 d6 bd
       0.033826966 0.072363555 -0.015436644 -0.10455384
000150 66 aa ec 3b 26 e8 6d bd ee 57 2a 3d 60 5f 76 bd
       0.0072224615 -0.058082722 0.041587763 -0.06014955
000160 74 5b 18 bc e3 fc a6 bd f1 64 82 3b d7 ec 31 3c
       -0.009299148 -0.08153703 0.0039793183 0.01085969
000170 74 23 8b 3d c6 92 8d bd 26 a6 26 3d 62 74 9e 3d
       0.067938715 -0.069127604 0.040685795 0.07737042
000180 8b 12 b3 bc 66 af 3d bb 62 fb c0 3d 23 6c 1c 3d
       -0.021859428 -0.0028943657 0.094229475 0.038189065
000190 3a f8 85 3d f5 33 c6 3d d5 35 0e bc d8 eb af bc
       0.06541486 0.09677879 -0.008679827 -0.021474764
0001a0 c6 00 58 bd 94 cf 4c 3c 79 d3 6e 3d b8 4d 82 bd
       -0.052735113 0.012500662 0.058307145 -0.0636248
0001b0 26 97 5d bd 99 15 bf 3d 46 9c de bd 21 49 15 3d
       -0.054099225 0.09330291 -0.108696505 0.036446694
0001c0 a5 8b 01 bc 64 99 38 3d 42 16 d2 bd 67 07 be 3c
       -0.007906829 0.04506816 -0.102581516 0.02319689
0001d0 cb 8f 00 3d 59 94 e4 bb e9 a8 2a bb 97 64 5d bd
       0.03138713 -0.006975692 -0.002604062 -0.054051008
0001e0 a2 02 45 bb 8e 2c 5f bd 08 41 42 3d 2e d1 b5 3d
       -0.0030061384 -0.05448585 0.0474253 0.088777885
0001f0 b9 a4 84 bc 86 22 87 bd ad 06 c6 3d e8 b3 e4 bd
       -0.016191827 -0.06598382 0.09669242 -0.11167127
000200 17 cc 7e bd 0c ba 9b 3c e7 48 01 3e 00 58 d5 bd
       -0.062206354 0.019009613 0.12625466 -0.10417175
000210 b0 70 2b 3d 2a ed 4f 3d 74 99 15 bd 47 5a e7 bc
       0.041855514 0.050763287 -0.036523297 -0.02824129
000220 f4 6a a1 3d 39 a0 b1 3d 0e bd 6f 3d c9 14 dd bd
       0.07881728 0.08673138 0.058529906 -0.1079498
000230 4b 7a 3b 3d 48 d2 e0 bd de 7f 7d 3d 2e 54 7e bd
       0.045770925 -0.10977608 0.06188952 -0.062092
000240 07 00 fa bc da 69 e3 3c a7 69 fe bc ae e3 2a 3d
       -0.030517591 0.027760435 -0.031056238 0.04172104
000250 08 cc 88 bd ba 96 a2 bd 82 77 27 3d 61 1d cb 3d
       -0.06679541 -0.07938905 0.040885456 0.09917713
000260 c7 68 0e bd 30 e7 ce bc d3 ff d9 3d bf 07 03 bd
       -0.034767892 -0.025256723 0.10644498 -0.03198981
000270 3f e5 c3 bd 85 ce 83 bc 90 73 91 bc bf ce ab bd
       -0.095652096 -0.016089687 -0.0177553 -0.08389043
000280 ad 53 e4 bc a5 20 e6 3c a2 1b 93 3d 18 68 16 3d
       -0.027871931 0.028091738 0.07183005 0.036720365
000290 9e 2a e4 bd e5 a3 09 bd e7 22 e8 3c ed de b2 3d
       -0.11140941 -0.033603568 0.028336955 0.08733926
0002a0 0e 09 70 3d 47 0a bf bd 28 35 1c bd 3d 1f 31 bd
       0.058602385 -0.09328132 -0.03813663 -0.04324268
0002b0 bf 6a 29 3d ca 7b b2 3d cf 9d cc bc 44 87 1c bd
       0.041361567 0.08715017 -0.024977593 -0.038214937
0002c0 ad d3 da bd a8 ef 91 3c ed 8c f4 3c 19 ca 34 bd
       -0.10684905 0.017814472 0.029852355 -0.044138048
0002d0 b5 f4 b7 bd 28 02 e5 3d e8 e2 b6 3c 13 a6 8a bd
       -0.08982221 0.11182052 0.022324994 -0.067699574
0002e0 b1 f7 92 3d 54 59 c9 3c c8 17 69 3d 09 e3 b7 bd
       0.0717615 0.024578728 0.056907445 -0.089788504
0002f0 e0 e7 c1 3d 86 4c 9b bc f5 fb cd bc e2 bf 3c bc
       0.09468055 -0.018957388 -0.025144557 -0.011520358
000300 53 38 a5 bb b1 17 95 3d e5 14 c7 bd 3b 56 93 3c
       -0.0050421148 0.072799094 -0.09720782 0.017985454
000310 c6 95 ec 3d ba a9 9c 3d 48 bd 2c 3b 37 70 29 bc
       0.115520045 0.0764956 0.0026357938 -0.0103416955
000320 a2 1b 72 3d ac 24 e3 bc 84 15 b3 3d a1 8b 0c bd
       0.059108384 -0.027727447 0.08744338 -0.034312848
000330 b8 10 d0 3c 01 7d f6 bc da b6 c7 bc dc 75 9f bd
       0.025398597 -0.030088903 -0.024379183 -0.07786152
000340 37 9c a9 3c e1 73 e6 bd fc 79 ae bd 18 9c 7a 3d
       0.020704372 -0.11252571 -0.085193604 0.06118402
000350 9d d2 28 3d 03 3e 22 3d 75 aa 75 3d a8 17 15 3d
       0.04121648 0.03960992 0.059977014 0.036399513
000360 d7 39 3e bb 31 2d 8b 3d dd 16 19 3d 61 3c 86 3d
       -0.0029026174 0.06795729 0.03737532 0.06554485
000370 dc 18 e7 3c ae 24 d6 3d eb 0f a5 bd 03 19 45 bd
       0.028210096 0.10456215 -0.08059677 -0.048119556
000380 77 b0 a5 3d 51 0d b4 3d 1e 21 da bd 1d 62 e4 bd
       0.080902986 0.087916024 -0.10650848 -0.11151526
000390 a4 a3 e5 bd 97 d7 a8 3c 83 45 ed bd e6 f9 d8 bd
       -0.112128526 0.020610614 -0.11585524 -0.10594539
0003a0 11 c4 5f 3d 2c 3f 4f bd 1e 58 d5 3a e1 b3 0e 3b
       0.054630343 -0.050597355 0.0016276871 0.0021774697
0003b0 65 ad df 3d 77 50 a0 3c da 45 ee 3c 0f 02 e7 bc
       0.10921744 0.019569619 0.029086042 -0.028199224
0003c0 12 64 c3 3d 19 37 c1 3d 70 ae a6 3d cc 5e 95 bd
       0.09540571 0.09434337 0.0813874 -0.07293472
0003d0 9c 43 b1 bb 39 c8 85 3d 4b 4d 9e 3b 12 f3 13 bd
       -0.005409671 0.0653233 0.0048309914 -0.03612048
0003e0 18 e4 af 3d 56 d2 88 3d 76 9a a3 bd e5 42 64 bc
       0.08588427 0.066807434 -0.079884455 -0.0139319645
0003f0 de e7 5a 3d 43 e6 c0 3c d1 a6 c5 bd 6a f5 2c bc
       0.053443782 0.023547297 -0.09650958 -0.010556558

fc.bias f4 [2]
000000 73 d1 2e 3b 58 d1 c2 3d
       0.0026675134 0.095125854
