OpenPifPaf/models/plank_lstm.pth (torch, 339119 bytes, 6 tensors)

lstm.weight_ih_l0 f4 [512, 34]
00000000: 6ff8 973d 5993 883d 5eaf 773d 62c6 8fbd
00000010: d077 893b 2a19 433d 6298 13bd 7873 88bc
00000020: f80d a93c 1749 2ebd 7bb9 843d b0fb 25bc
00000030: d4f8 b7bc e6c6 45bd bd5b 813d e01b d4bc
00000040: f01b 18bd a727 b43d 4047 c63a 2501 a13d
00000050: a25d 503d 808a 94bb fc3a eb3c f069 d93b
00000060: 380a b2bd 6e45 043d 541c 873c 70a6 e73c
00000070: 5cc8 a8bc 12d1 463d 6cfd 133d 787d e73c
00000080: 10bd ebbb 688a 83bd c08d d0bb 0085 11bb
00000090: fe50 2a3d 9a03 20bd e1e1 3fbd e0b0 18bd
000000a0: f048 ef3b 8112 a93d c8f4 f2bc 0b13 ad3d
000000b0: 27f3 a8bd 0c69 e4bc e0a7 38bb 0ad4 5cbd
000000c0: 3ad1 4a3d 0e87 afbd 4033 86ba a671 0c3d
000000d0: f832 623c a2f6 563d 963e 013d 0965 10bd
000000e0: 10f0 20bc d2f0 653d 70b0 b7bb 7a81 33bd
000000f0: 3ad3 2a3d 74bc b23c 7429 cebc 1316 a43d
00000100: c6e8 5d3d 8860 2c3c 4062 fb3a 3f56 8a3d
00000110: 48aa 4bbc f971 953d 0af1 1a3d 27f7 b13d
00000120: 4441 6dbd 3d17 a53d 33b7 a23d 64b4 abbd
00000130: 0201 84bd 14c2 c53c 5040 8d3c a8c0 9ebd
00000140: 0464 06bd c532 83bd 0c2d bbbc cc7c f03c
00000150: 5634 f6bc 68a9 8e3c 70e7 8fbc 0863 90bc
00000160: c9e4 9dbd f085 4cbc 1b5f 843d d032 643c
00000170: 331a a13d 259a 81bd 004a 07bd 0d19 903d
00000180: 6e23 173d 2675 4ebd 46d4 263d 3938 a33d
00000190: 607a 00bc 9536 803d e48b c73c f6ab a3bd
000001a0: 7401 c8bc 96fd 283d 9d15 a03d bea8 363d
000001b0: 0a91 443d 6fc7 4bbd d628 4ebd 21da a33d
000001c0: 6b55 abbd ddd8 06bd 4ab3 0e3d 3b1e af3d
000001d0: 4299 aabd 79d7 a93d 8aa3 2d3d 3571 853d
000001e0: 102a 22bd 14ca 6bbd 49d8 b03d 4add 3cbd
000001f0: 6c87 d9bc 0010 8eb9 1d4b 64bd 5bae a43d
00000200: 8b79 8f3d c15a af3d c272 0e3d 3170 43bd
00000210: 7643 09bd a786 ae3d 59a0 963d e9c3 8b3d
00000220: 004f a339 d1eb 883d 059b b23d 8da9 a33d
00000230: b88e db3c b049 7abc 5561 8a3d ea53 a4bd
00000240: 0668 723d 225b 4e3d 4ad0 283d fc59 bc3c
00000250: d03a d3bc f073 fabb 92d7 453d 50f2 aa3b
00000260: 993d 9e3d 6f76 973d 5776 833d 46b9 a7bd
00000270: d703 51bd 1420 19bd 8670 2cbd 79e4 f9bc
00000280: 2622 3ebd 41f5 2d3d 7546 54bd 8a4c 97bc
00000290: ec04 97bc e338 753d 829d 5c3d 694c 46bd
000002a0: 7ea1 0f3d f3e0 67bc 0a23 abbd ca0b 8cbc
000002b0: f9fe a6bc 4385 693d ef80 a53d c86a 3a3d
000002c0: 11b0 9c3d 8f69 723c 3c5a 66bd be13 21bc
000002d0: 6573 ac3d 84cd d0bc 7050 99bd bdef a9bc
000002e0: f357 8e3d 6706 4abb b71e 023c f0f0 afbd
000002f0: 9002 f03c d16a a0bd 8515 bc3d ff25 893d
00000300: 7e77 383d d65e 6bbd 2041 0c3c c07d debc
00000310: 733e 98bd 9046 c6bc fee8 7ebd e881 8f3d
00000320: 20b1 ccbc 4c6f b0bc 18b2 a4bd a270 26bd
00000330: 90ba a83b 71ab 2cbd 896b 8a3d 9d0c 873d
00000340: 881d ef3c 0487 9ebc b6bc 683d 56a0 373d
00000350: 8657 1a3d de3a 7f3d 0c28 da3c b05c fdbb
00000360: 82a3 2f3d b021 d5bb dd03 16bd cd17 80bd
00000370: 05a2 a23d 43aa 903d 74a2 b13c 804b 64bd
00000380: 240a c33c 47f6 923d b595 03bd f7c9 a6bc
00000390: be2e 653d 5188 8abd afba 04bd f8ef 483d
000003a0: 5f39 5a3d 58ff 3dbd fc51 b2bd 3553 dd3b
000003b0: b32f 753c 75e3 aebb 7a1c b2bd 37cb 9b3d
000003c0: 2e1b 86bd 4415 a33d 984f 183d 2e70 243b
000003d0: fa0a 6b3d 02b5 5a3d fbc0 4e3d a48b adbd
000003e0: 1a7e 3e3d 362c 2c3d f866 a23b b6a0 ad3d
000003f0: 7052 adbd e940 26bd 3996 f1bc 4e92 d7bc
0.07420432 0.06668729 0.060469978 -0.070202604 0.004195191 0.04763142 -0.036033995 -0.016656622
0.020636544 -0.042550173 0.0648069 -0.010130808 -0.022457518 -0.048285387 0.06316326 -0.025892198
-0.03713602 0.087966256 0.0015127435 0.078615464 0.050870545 -0.004533112 0.02871465 0.006634943
-0.08693355 0.032292776 0.016493 0.028277606 -0.020603351 0.04853923 0.036130354 0.02825807
-0.007194169 -0.06422883 -0.006364554 -0.0022204518 0.041581146 -0.039065935 -0.046846274 -0.037278056
0.007302396 0.082554825 -0.029657736 0.08450898 -0.08249503 -0.027882122 -0.0028176233 -0.053913154
0.04951594 -0.085706815 -0.0010238662 0.03428807 0.013806097 0.0524813 0.031553827 -0.035252605
-0.00982286 0.056137867 -0.00560575 -0.04382465 0.041705348 0.021818377 -0.02516625 0.08012023
0.05417707 0.010521062 0.0019179061 0.067547314 -0.012430735 0.07297129 0.03782753 0.08689719
-0.05792357 0.08061073 0.07945099 -0.08384016 -0.06445505 0.024140395 0.01724258 -0.0775159
-0.032810226 -0.06406168 -0.022848628 0.029356383 -0.030054253 0.017414764 -0.017566413 -0.017625347
-0.07709653 -0.012483105 0.064634524 0.01392813 0.07866325 -0.06328229 -0.033029556 0.07036028
0.036899023 -0.05040469 0.040729783 0.07969708 -0.0078416765 0.06260411 0.024358697 -0.07991783
-0.024414755 0.041257463 0.078166224 0.04459452 0.047989883 -0.04975074 -0.050331913 0.08000589
-0.083659016 -0.03292166 0.034838952 0.08550688 -0.08330013 0.08293051 0.04239229 0.06515733
-0.039590895 -0.057565764 0.08635003 -0.046109475 -0.026553832 -0.00027096272 -0.055735696 0.08041068
0.07005604 0.08562232 0.03477741 -0.047714416 -0.0335116 0.08521777 0.07354803 0.06824476
0.00031148642 0.066856034 0.08720974 0.079913236 0.026801452 -0.0152763575 0.06756846 -0.08023818
0.059181236 0.05037988 0.041214265 0.022992127 -0.02578488 -0.0076432154 0.048301287 0.005216874
0.077265926 0.07395636 0.06419056 -0.08189635 -0.051029053 -0.037384108 -0.0420995 -0.030504452
-0.046419285 0.04247022 -0.051825006 -0.018469114 -0.018434964 0.059868705 0.05386115 -0.048412714
0.03506612 -0.014152753 -0.083562925 -0.017095465 -0.020385252 0.057011854 0.08081233 0.04551199
0.076507695 0.014795675 -0.056238398 -0.009831367 0.08420447 -0.025488622 -0.07486045 -0.020744199
0.06950369 -0.003082657 0.007941893 -0.08590877 0.029298097 -0.078328736 0.09183792 0.066967
0.04503583 -0.05746349 0.008560449 -0.027159572 -0.07433786 -0.024203569 -0.062233917 0.070071995
-0.024986804 -0.021537445 -0.08041781 -0.04063476 0.005149193 -0.042155687 0.06758792 0.06594203
0.029188886 -0.01935149 0.056820594 0.044830643 0.037681125 0.062312 0.026630424 -0.0077319965
0.042880543 -0.00650426 -0.036624778 -0.0625454 0.07941059 0.07063725 0.021683909 -0.055736065
0.023808546 0.0717588 -0.032125194 -0.020359976 0.05595278 -0.067642815 -0.032404598 0.049056977
0.05327737 -0.046386093 -0.087070435 0.006754304 0.014964986 -0.0053371736 -0.08696838 0.076071195
-0.06548153 0.079630405 0.03718528 0.0025091278 0.057383515 0.05339528 0.05047701 -0.084739
0.04650698 0.04203435 0.0049561225 0.08477919 -0.08462989 -0.040589247 -0.029490577 -0.02631488

lstm.weight_hh_l0 f4 [512, 128]
00000000: 4b0a b0bd 0dfd a13d e62d 3dbd e65c dbbd
00000010: 7b84 8bbd 0072 973d 97d6 5d3d 7e86 903c
00000020: f87e bc3d 5276 8f3d f4dd 7fbb 2d03 35bd
00000030: d25f d73c 1080 6bbd 90a0 aebd 1c1c ba3c
00000040: d326 f63c 7b95 283d b22a be3c 2593 9ebc
00000050: 77bb b1bd ee07 113b f704 843d a992 843d
00000060: 2a0b 243c 3e18 37bc c9db 623d 7bd8 bd3c
00000070: 5de2 3bbd f6a6 d83d 533e 75bd 5517 483d
00000080: b73c b5bd 9280 a7bd 7a21 22bd d69d 813c
00000090: 0f0b dabc a1cf 3ebc 7d08 a3bb 4d91 5cbd
000000a0: e9a5 79bd e950 8dbd cd1c 35bd 098e dbbd
000000b0: fd34 543d ef63 bfbd df8f b3bb 070c 703d
000000c0: eb3a 4bbd 1213 f9bc 385d d3bc a809 8b3c
000000d0: 74d5 5e3c f6a1 c6bd e045 e63b 9875 ba3c
000000e0: 54b4 d9bb 45dd 8f3d 876b 523d 417b d7bd
000000f0: c5f6 b83d e4e1 373d 97e6 113d beb4 c53c
00000100: 9315 033d 2b28 e13d a431 a03d 6180 033c
00000110: d4f8 3f3d 5067 5dbd cc63 833d b90a 3cbd
00000120: 722f 89bb 081e b3bd e8a4 8cbd dcd3 f5bb
00000130: fedd 443d 02c4 a13d 9357 a2bc 3d65 a9bc
00000140: 00d7 2e3c 48b3 cd3d 94fb 103d c463 9bbd
00000150: f5ed a33c e89f a7bd 297c 813d b841 1cbd
00000160: 037f 0b3d 556d 703d 0868 c9bd 3c7c ba3d
00000170: ae62 c2bc b8e4 62bd 5ad5 813d c541 89bd
00000180: 68d4 cd3c e626 203d 99a9 b83c 72f4 c53d
00000190: dec9 ae3d 30ec 8e3d eaf4 d23b 0bb0 513c
000001a0: ac17 cbba 9d93 843d ce0f 5bba 03ed 71bc
000001b0: 8f41 85bd a1ed 853c cfaf 1e3c 7d5c a13d
000001c0: c51d 5cbd 6475 163d b26d 623d 394a 1a3d
000001d0: 99dd a7bd 90b5 cf3d e907 883c 9126 e6bd
000001e0: e164 53bd a02a df3c 0b77 b93c ee17 9d3d
000001f0: 7eec 7abc 46cf 023d bcc2 253b 8344 85bd
00000200: 56f3 8d3d be5c 9bbd 639e 3dbd 9dde cdbc
00000210: dc34 b7bb ea2d 8a3d e1b6 c13c a2bc 3c3d
00000220: a434 a43b c44d 0ebd 8d5d 813d 56fe 34bd
00000230: 3d92 8c3c cb41 ab3c 0f7e 96bc 52b0 2b3d
00000240: b4e7 10bc 1c7c 2b3c a443 7bbd 430f 93bc
00000250: e1ce 3fbd 6715 043d 0d90 933d cad7 09bc
00000260: d7dc 6a3d 6eab da3c d0f5 8c3d d84c a7bd
00000270: 247d 4b3d db1d 58bd 1dcc 303d 9368 853d
00000280: 1100 c5bd 7ff9 683b ad06 a63d efff 863d
00000290: 9752 0ebd b558 75bc 3e7e 2fbd 4096 913d
000002a0: 4e6d ae3c 670a c53c 4605 c73d 5273 73bc
000002b0: 1881 f8bc 6cbb 89bd ecb6 5c3d de24 8abd
000002c0: 094a d3bc e3b4 1f3d c64d a3bd b059 113d
000002d0: 7072 5e3a 4838 1e3d b2b1 013d e6f9 a5bc
000002e0: 83ad 5f3d 3013 593d 953b dabd 84c4 37bc
000002f0: bf40 85bd 84cc e1ba d6ba 4a3d 1691 80bd
00000300: aba2 97bb 98ac 7f3c b231 9d3d 1801 c43b
00000310: 01a7 97bc cf1a 123d b36c 4abc b37f 493d
00000320: 1002 d13c 099e bcbd c8c6 f3bc b73b 8cbc
00000330: c0ed a7bd a850 5cbd 985a a3bd 7192 85bd
00000340: d743 1c3c ac55 fb3a 4d94 743d 5ca1 acbd
00000350: 568a 86bc ac58 0b3d 71ee 1ebd 5f12 85bd
00000360: c8dc f63c f63f a23d a26a 88bd c169 023d
00000370: 5d3f 903c a2e0 183d ada4 423d 3881 00bc
00000380: 9c18 883d d9e0 6f3c 50b3 c73b aabc 093b
00000390: ea0c 9ebd f176 45bc 1af9 2c3c 351c 84bd
000003a0: 76db 7bbd a2ed ccbc 1c91 31bd dfab 58bd
000003b0: 6634 8ebd 2923 17bd 3a35 8bbc 9a8c 5fbc
000003c0: 0683 163d 58ed 013d b313 f13c 10e2 8d3c
000003d0: f6ed 48bd 4c45 d63d 4632 8bbd cbc0 0a3d
000003e0: dd04 8f3c 1e7e fa3c a6a6 923c 2994 ed3c
000003f0: c7ff dd3d ce9f 323d e524 33bd a799 6f3d
-0.08595713 0.07909594 -0.04618635 -0.10711078 -0.06812378 0.07394791 0.054159727 0.017642256
0.09203905 0.0700499 -0.0039042206 -0.04419248 0.026290808 -0.057495177 -0.085267186 0.022718482
0.03004781 0.04115818 0.023213718 -0.019357273 -0.08678334 0.002212997 0.064462595 0.06473286
0.010012427 -0.011175213 0.055385385 0.023174515 -0.045870174 0.1057872 -0.05987389 0.048850376
-0.08849471 -0.0817882 -0.039582707 0.015822332 -0.026616601 -0.011646182 -0.004975377 -0.053849507
-0.06094924 -0.06900198 -0.04421692 -0.107204504 0.051808346 -0.09345233 -0.0054797973 0.05860522
-0.049616735 -0.030404601 -0.025801286 0.016972378 0.013600696 -0.0969886 0.0070273727 0.022761151
-0.0066438112 0.07024626 0.051372077 -0.10521556 0.090314426 0.04489316 0.0356203 0.024134036
0.032002997 0.109939896 0.07821968 0.008026213 0.04686816 -0.054053605 0.06415519 -0.045908663
-0.004186564 -0.087459624 -0.06867391 -0.0075020622 0.04806327 0.07898714 -0.01981715 -0.020678157
0.010671377 0.10043961 0.035396174 -0.07587388 0.020010928 -0.081847966 0.0632251 -0.03814861
0.034056675 0.058698017 -0.098342955 0.09105727 -0.023728695 -0.055393904 0.06339522 -0.06701998
0.025125697 0.039099596 0.022541808 0.09665765 0.08534597 0.06978643 0.0064378874 0.01279832
-0.0015494726 0.064734675 -0.0008356542 -0.014765981 -0.06506645 0.016348662 0.009685471 0.07878969
-0.053739328 0.036733046 0.055280395 0.03766844 -0.08196563 0.10142052 0.016605334 -0.11237825
-0.051609877 0.027242005 0.022639772 0.0767058 -0.015315173 0.031935953 0.0025293073 -0.06507208
0.06931178 -0.075860485 -0.046293627 -0.025130564 -0.005591018 0.06747039 0.023646774 0.04607833
0.005011158 -0.03474213 0.063166715 -0.044187866 0.017159576 0.020905396 -0.018370656 0.0419162
-0.008844305 0.010466602 -0.061343804 -0.017951613 -0.046828154 0.032246973 0.0720521 -0.0084132645
0.057339516 0.026693072 0.068828225 -0.08168954 0.04967989 -0.052762847 0.043163408 0.065140866
-0.09619153 0.0035549102 0.08106742 0.06591784 -0.034746733 -0.014974763 -0.042845003 0.07108736
0.021292355 0.024052812 0.09717803 -0.0148590375 -0.030334994 -0.06725201 0.053885385 -0.06745313
-0.025792139 0.038990866 -0.079738185 0.035485923 0.00084856804 0.038627893 0.031663604 -0.020260762
0.054608833 0.052996814 -0.106558956 -0.011216287 -0.0650649 -0.0017227088 0.049494587 -0.06277673
-0.004627546 0.015605114 0.07675494 0.0059815757 -0.01851225 0.035670098 -0.0123550175 0.04919405
0.025513679 -0.0920983 -0.029757872 -0.017118318 -0.08199644 -0.053787857 -0.07976264 -0.06522072
0.009537659 0.0019175312 0.059711743 -0.08429214 -0.016423386 0.03402011 -0.038801614 -0.06497645
0.030134574 0.07922356 -0.066609636 0.031839136 0.017608339 0.0373236 0.04752033 -0.007843308
0.06645319 0.01464101 0.0060943738 0.0021016994 -0.07717307 -0.012052284 0.010557437 -0.064506926
-0.06148859 -0.025015656 -0.043351278 -0.052898284 -0.06943588 -0.036898766 -0.016993154 -0.013644362
0.036746047 0.03172049 0.029428339 0.017319709 -0.049055062 0.10462436 -0.06796698 0.033875268
0.017458374 0.030577715 0.01790173 0.029001312 0.10839801 0.043609433 -0.043736357 0.058496144

lstm.bias_ih_l0 f4 [512]
00000000: 4920 3b3b b5c8 113d b2a5 13bd 1782 42bd
00000010: 1b9e 173d 0621 55bd c2ea 203d 296b 8aba
00000020: df68 903d 43f1 8bbd 11f0 46bd e5a1 073c
00000030: c7bb 54bd 8188 8dbc 521e df3c 0683 cf3c
00000040: 87d9 f2bc a39c c83c 1933 9b3b 7a67 12bd
00000050: 6caa a6bd 386f af3d 4017 3bbc fe25 5ebd
00000060: 7d55 4dbb 5b76 213d ae5f 34bd cb81 c8bc
00000070: cdb4 0a3d c5eb 5fbd 0809 1f3d 81b7 2dbd
00000080: 7737 68bb a45f 413c d8b3 1abd 7a15 e43d
00000090: cc0c a7bc fa7b 8bbc 2d4d c53c 2fff b03d
000000a0: 939a 5cbd 0ad8 303d 48c5 413d 0252 b83d
000000b0: b26c 563d 222d f33c 3d46 bf3d 4abe 47bc
000000c0: ed16 253c bf1d 08bb 3cf9 53bc f7a3 2d3d
000000d0: dd64 abbc 15b3 603d c53b bb3c b386 b33d
000000e0: dd8a 2c3d 994c 483c 1d9a aabc 99aa ab3d
000000f0: fd7f 2f3d a306 b8bc 1424 18bb 3bf0 47bc
00000100: fad2 bcbd 9398 02bd eceb 923c 88ec 4ebd
00000110: 99df 07bd cff5 58bd 9571 fabc 633e 8d3d
00000120: aafb f2bc 3054 ac3d b00e 82b9 e49d 473d
00000130: 8366 283c 64f9 a13c 049a ad3a 83ad 42bd
00000140: 7168 363d 999b 413c e648 463d d68f 57bc
00000150: c289 16bc a45f c7bd bc96 7cbb 8171 623d
00000160: 48e8 a23c 909a eb3c fa89 1e3d 3368 8b3d
00000170: 3df0 5abb e11d 22bd 306a a4bb 6ea5 b23c
00000180: 8066 7ebd fe41 db3d 158b e1bb f526 b23d
00000190: cd02 a63d 946f 343d 3677 253d fa93 10bd
000001a0: 6daa b93d 99d8 6b3d 72e3 05bc 74fb 0f3d
000001b0: 870d c73d 8fcc 38bd ec41 0a3d ac96 a93d
000001c0: 8a96 6dbd 1909 d7bb 8618 5b3c ed15 89bd
000001d0: 3dab 9ebc a953 923c ea53 983d 0012 85bb
000001e0: 6964 bcbc 7d19 a43b 415d 6cbc e3e0 953d
000001f0: a478 f8bc f996 5a3d f661 dbba aa13 39bd
00000200: 1e8b 80bd 72cc 8e3d 4a07 4bbd 947c 37bc
00000210: e941 3e3d a540 863d 5ab9 653d 30e8 81ba
00000220: 71bb 4d3d dd35 84bd b03b 053d 1b01 5e3d
00000230: 76b2 efbb 6325 a73d d979 903c ce58 ba3d
00000240: 7fe6 80bc 3d7e 013d 7524 3cbd adb3 57bc
00000250: 34fb 42bd 7568 0e3d a731 b0bd 5ccb 1f3d
00000260: 5265 ebbc fe79 723c 20b0 f93c e87f 05bd
00000270: a330 8fbd af4d 363d ebab 143d 29c1 54bd
00000280: 4f0d 29bc eb46 793d e53c 26bd 0404 9c3d
00000290: 436a fdbc f993 663d e363 2d3d 33d3 6e3d
000002a0: e93b b43d af07 a3bc a63f 19bd ddec bb3d
000002b0: be7f ee3b d2df 88bd e11e c4bc e3da a03d
000002c0: 24f9 c33c 36ba 923d 7d07 b63d 72b9 0abc
000002d0: 3b8c 55bd d745 403d ffc5 83bc 0c35 69bc
000002e0: 287a c13d e208 3c3d 4415 82bd a840 18bc
000002f0: 10a0 2a3d b20f 273d 6567 1dbd 55a7 84bd
00000300: c9e6 56bd 6c60 193d 96a4 803d 6ac6 b9bc
00000310: 82e9 9b3d 9ad7 79bd 7866 303d ca09 b33b
00000320: 01c8 3b3d 424b e53c 4f71 67bc 2960 ce3d
00000330: 5f84 3ebd 568e e6bc 36f5 1ebc 5c66 233d
00000340: 11f2 4dbd 85cf 083d 9ccf 923d 3d77 5bbd
00000350: 961d eb3b 2de6 74bd a0e5 e13c 8d0b 01bd
00000360: cbcf 70bd 8a89 abbb 4e62 55bd 3520 4d3d
00000370: a4ff cb3c b8e4 edbc 42f7 143d 012d c53d
00000380: 39b1 e1bb 6e95 80bd a872 2abd c288 26bc
00000390: b588 0d3d ee42 31bd 3aa3 b73d d131 e53b
000003a0: 0e0a 6cbd 8051 4bbd 79c3 703d f14f 2fbc
000003b0: 4bc1 ce3d b142 03bd 02f0 13bd 605e 363c
000003c0: 72d7 c6bc 048a 1c3d 5fc2 f53c 047e 5fbc
000003d0: 8cbf 0a3d 3cd9 51bc e7a9 573d bbe2 82bd
000003e0: a4ea 43bd dff9 453d b2f5 aa3d d3df cf3c
000003f0: 4eef 6f3d 9bb1 99bd 9a51 833d 43d7 213d
0.002855318 0.0355918 -0.03604669 -0.047487345 0.037016015 -0.052033447 0.039286382 -0.0010560501
0.070512526 -0.068331264 -0.04856879 0.008278345 -0.05193689 -0.017277004 0.027236138 0.025331032
-0.02964474 0.024488753 0.004736316 -0.035743214 -0.08137974 0.08566135 -0.011419117 -0.05423545
-0.0031331473 0.039419513 -0.04403656 -0.024475953 0.03386383 -0.054668207 0.038826972 -0.04241133
-0.003543345 0.011802588 -0.03776917 0.11136909 -0.020391844 -0.01702689 0.024084652 0.086424224
-0.05385835 0.04317478 0.047307283 0.09000017 0.052349754 0.029684607 0.09339569 -0.012191365
0.010076267 -0.0020769683 -0.01293784 0.042392697 -0.020922119 0.054858286 0.022855649 0.08765926
0.042124618 0.012225294 -0.02082544 0.08382148 0.04284667 -0.022464102 -0.0023214864 -0.0122032715
-0.09219928 -0.031883787 0.017934762 -0.050518543 -0.033172224 -0.052968796 -0.030571738 0.06896665
-0.029661018 0.08414495 -0.00024806475 0.04873456 0.010278347 0.019772239 0.0013244753 -0.047528755
0.044533197 0.0118168825 0.048409365 -0.013156852 -0.009188117 -0.09735039 -0.0038541993 0.055284027
0.019886151 0.028760225 0.038705803 0.06806984 -0.0033407353 -0.039579276 -0.0050175413 0.021807399
-0.06210947 0.107059464 -0.006883035 0.08698837 0.08106003 0.04405172 0.04039689 -0.03529737
0.09065709 0.05757961 -0.008171903 0.035151914 0.09719377 -0.045116957 0.033754274 0.082806915
-0.058004893 -0.006562364 0.013372546 -0.06693635 -0.019368762 0.017862158 0.0743788 -0.0040609837
-0.022997098 0.0050079213 -0.01442653 0.07318284 -0.030330963 0.053366635 -0.0016737569 -0.04518477
-0.062765345 0.069725886 -0.0495675 -0.011199135 0.046449576 0.06555299 0.05608497 -0.0009911116
0.050227586 -0.06455586 0.032527626 0.054200273 -0.0073149754 0.08161428 0.017636226 0.090989694
-0.01573491 0.03161453 -0.045933206 -0.013165397 -0.047602847 0.034767587 -0.086032204 0.039012298
-0.028734837 0.014799593 0.03047949 -0.032592684 -0.069916986 0.04450768 0.036296766 -0.051942024
-0.010318114 0.06085865 -0.040585417 0.076179534 -0.030934459 0.05629346 0.042331588 0.058306884
0.088004895 -0.019901125 -0.037414216 0.091760375 0.0072784116 -0.06683315 -0.023940505 0.07854249
0.02392251 0.07164423 0.08888147 -0.008467065 -0.052135687 0.046941604 -0.016085623 -0.014233839
0.094471276 0.04590691 -0.06351712 -0.009292759 0.041656554 0.040786453 -0.038428683 -0.064772286
-0.052466188 0.03744547 0.06281392 -0.022677619 0.076128975 -0.06099663 0.04306647 0.0054638134
0.045845035 0.027989987 -0.014126136 0.10076935 -0.046512958 -0.028144043 -0.0097020175 0.03989254
-0.05027968 0.03340103 0.071685046 -0.05358051 0.007175158 -0.059789825 0.027575314 -0.031505156
-0.058791917 -0.005234902 -0.052095704 0.050079543 0.024902172 -0.029039726 0.036368616 0.096277244
-0.0068875817 -0.062785015 -0.04161325 -0.010164442 0.034554202 -0.04327672 0.0896668 0.006994464
-0.057626776 -0.04963827 0.058780167 -0.010700212 0.100954615 -0.032046024 -0.03611756 0.011130899
-0.024272654 0.03821756 0.02999991 -0.013640884 0.03387408 -0.01280814 0.052652266 -0.06390902
-0.047831193 0.048334 0.08347644 0.025375282 0.058577828 -0.07504579 0.06412049 0.03951193

lstm.bias_hh_l0 f4 [512]
00000000: f4b8 2039 bdf6 5f3d e279 e63a 58f1 75bd
00000010: c6b8 d5bc 3149 d03d 89cc 4c3d 4d6a 69bc
00000020: 2bf6 40bd fd5b 81bd 0dbb ff3c d621 3fbc
00000030: 4381 0ebd a21e 1a3d ac9b d8bc 4bd8 9b3d
00000040: 8f9c c63d f56a 5fbd 8603 c53d 6767 043c
00000050: 946b da3b b88b 2dbc 20de 423c 8155 9a3d
00000060: 22c2 893d f346 243d 70bc 893d f099 113d
00000070: de86 1abd dcf7 7c3c 7fa9 263d 42b8 11bd
00000080: 804c 2f3d bb2e 03bb c738 0b3d eb1b 9e3c
00000090: 08e3 913d a58a 823c c2ea 2cbd 757a 30bd
000000a0: 8f98 a03d 192a 893d b57b da3d e779 be3c
000000b0: 5201 8d3d 222a 843d b418 18bd 9665 7e3d
000000c0: f8e1 7d3d ff2c 8a3d 4794 0f3d 4894 733d
000000d0: def4 cc3c 2636 b23d 7b99 b43d 1eda 40bc
000000e0: bbdf da3d bfa4 f9bc 3864 24bd d63c 5abd
000000f0: 2432 6bbd 615e f6bc 4f38 a73d d343 10bb
00000100: c2ac 353d 48c2 04bc 23e2 c2bc 608c 13bd
00000110: 8a17 a13c e8f8 57bd 6539 8dbd 2b73 38bd
00000120: 73ac 723d 995b 2fbd 5ac0 74bd dd8e 933c
00000130: 8b35 5d3d c647 4e3c 59f8 02bd c062 263b
00000140: 57f6 4cbd d438 da3c 436b 03bd d07b f3bc
00000150: 8cbf b1ba f756 9b3d 522d e1bc 382b b63b
00000160: ac88 08bd 3c5d 2dbc 0937 06bd 0960 a43d
00000170: 724b 53bd 415c 74bc 073a 983d b205 f03c
00000180: a5ec 873d 46a8 813d ccc6 4a3d 9a83 ae3d
00000190: 5d58 c73d 4fb3 2fbd 68c8 ab3d ef3c 613d
000001a0: eac1 65bd 369e 0cbc 3b34 aebd 9c1e 0f3d
000001b0: 0a35 bd3c 5718 04bc 1fa1 a0bd 169a b33d
000001c0: 758f d33c a7c9 de3c 4598 223d 7ac0 a4bc
000001d0: 5bba 9a3d ab11 e0bc 6f48 cd3d 3ebf 453d
000001e0: d1fe 9abd f63d dfbb 3ad3 323d 7b08 93bb
000001f0: e842 72bc a4b6 e93c 9675 5c3d 0671 c3bc
00000200: fade 043c 6742 733d d5b4 ebbc 4800 11bd
00000210: af09 82bb 8a41 aebc 0f6b 8b3d 88c5 3f3d
00000220: a4f0 42bd 96ed a23d bd96 593c 789f 70bd
00000230: 04ae d23d 07c8 a63d 1329 6d3a 3088 b83d
00000240: c906 1d3d 8f75 113c 887f 983b 48b0 423d
00000250: adea b63d 305a b63c 8e03 2ebd e273 ab3d
00000260: 7cd6 813d eb01 1c3c 7dcc b1bc 8aa4 543d
00000270: e21e 7bbc f36f 63bd f916 303d da9b 91bd
00000280: e47d e83b cb8c 84bc 862e d03d 8a0d aa3d
00000290: 3d2d 36bd 8c8f 313c 9dc4 983d ebd4 733d
000002a0: aaec 193a aebc 3bbd 5391 77bd 9dbd 6dbd
000002b0: 57d8 803d 91d2 a73d 6564 933d 7573 88bd
000002c0: 62af 5ebc 8981 d13c 26ff 7abc 4fa0 8cbd
000002d0: f6cf 5dbd e454 97bd 41f9 f33c b3ae 52bd
000002e0: b021 db3d 0825 ca3d 8e96 03bd b896 6abb
000002f0: 4074 ac3d 4e97 293d 4370 773d 3bab de3d
00000300: 6e14 013c 7e1b 923d 0b7c c23c 3757 063d
00000310: e5f3 9c3d 05cc 08bd d006 32bd 76f1 3a3d
00000320: 22f6 e83c dd1c 2fbd b60d c2bd b589 2d3a
00000330: e0be 82bc 59f1 073d f256 6b3c 6c3b 7dbd
00000340: 09dc a1bc b55c 603d 9552 183d f033 29bd
00000350: d21a 5dbd e37f 2b3d 0ec9 9abc 0984 563d
00000360: 4c62 153d ec5d 323d 007e 26bd 63d2 a93d
00000370: 5a98 18bd 71f4 41bd fddb 66bc 1ec0 0c3b
00000380: 71fe 503d 7995 17bc 4d75 e13c fd99 0f3d
00000390: c405 e9bc 07bd a53d a9cf a73d 594c d23d
000003a0: 2d67 983d fc21 cabc b594 8e3b ef40 0bbd
000003b0: 01a1 ad3d 1c3f 233c d7ab 223d fa61 f83c
000003c0: de94 993c 1853 8e3d 2ff0 36bd be43 6ebd
000003d0: a957 e0bc a54f 383c 4897 3a3d e119 693d
000003e0: 5eb1 05ba f30a b0bc 7cca c93d a74d f2bc
000003f0: 9263 4fbd 1100 193d 88da a83d 6902 a3bc
0.0001532769 0.054678667 0.0017583931 -0.060044616 -0.026089083 0.1017021 0.049999747 -0.0142465355
-0.047109764 -0.063163735 0.031217122 -0.011665782 -0.034791242 0.03762687 -0.026441418 0.07609614
0.0969783 -0.05454536 0.09619813 0.008081294 0.0066656563 -0.010592394 0.011893779 0.0753584
0.06726481 0.040106725 0.06725395 0.035547197 -0.037726276 0.015439954 0.040688988 -0.035576113
0.042797565 -0.0020016867 0.033989694 0.019300422 0.07123381 0.015935251 -0.04221607 -0.043085534
0.07841598 0.066974826 0.106681265 0.023251487 0.068850175 0.06453349 -0.037132934 0.0621086
0.06198308 0.067468636 0.035053518 0.059467584 0.025019106 0.08701734 0.088183366 -0.011770753
0.106872045 -0.030474065 -0.04013464 -0.053280674 -0.057420865 -0.0300743 0.08165037 -0.0022013083
0.044354208 -0.008102961 -0.023789471 -0.036022544 0.019664545 -0.05272761 -0.06895713 -0.045031708
0.05924649 -0.042811964 -0.059753753 0.018012458 0.05400614 0.012590354 -0.031975124 0.002538845
-0.050039615 0.026638426 -0.032084715 -0.029722124 -0.0013561114 0.075849466 -0.02748743 0.0055593513
-0.033333465 -0.010581311 -0.03276733 0.0802613 -0.051585622 -0.014914573 0.07432943 0.02929959
0.06636933 0.06330924 0.049505994 0.08521195 0.09733651 -0.04289561 0.08387834 0.05498975
-0.056093134 -0.008582642 -0.08506056 0.0349413 0.02309658 -0.008062444 -0.078432314 0.08769624
0.025825242 0.027195765 0.039695997 -0.020111311 0.07555076 -0.027352175 0.10023581 0.048278086
-0.075681336 -0.0068128062 0.043658473 -0.004487095 -0.0147864595 0.028529473 0.053823076 -0.023857605
0.008109802 0.059389498 -0.02877275 -0.03540066 -0.0039684395 -0.021271486 0.06807529 0.04681924
-0.047592774 0.07955472 0.013280568 -0.05874583 0.10287097 0.08143621 0.0009046953 0.09010351
0.03833655 0.008878126 0.004653875 0.047531396 0.089314796 0.022259802 -0.04248386 0.08371712
0.06339738 0.009521942 -0.021703953 0.05191473 -0.015327187 -0.055526685 0.04299066 -0.071098045
0.0070950855 -0.016180417 0.10165124 0.083033636 -0.044476736 0.010837447 0.07459376 0.059529226
0.00058717525 -0.045834236 -0.060441326 -0.058042157 0.062912636 0.08194459 0.07196883 -0.06662647
-0.013591619 0.025574462 -0.015319621 -0.06866514 -0.054153405 -0.073892385 0.02978194 -0.051436137
0.10699785 0.098703444 -0.032126002 -0.0035795402 0.084206104 0.04140406 0.060409795 0.10872503
0.007878406 0.0713415 0.023740789 0.03279802 0.07663707 -0.033397693 -0.04346353 0.04564043
0.028437678 -0.042752136 -0.094752714 0.0006619946 -0.015960157 0.03318915 0.014363991 -0.061824247
-0.019758241 0.054775912 0.03718813 -0.041309297 -0.053980656 0.04187001 -0.018894698 0.052372012
0.036470696 0.043546602 -0.040647507 0.08292081 -0.03725467 -0.047352258 -0.014090535 0.0021476815
0.051023904 -0.009251946 0.027521754 0.035058964 -0.028445132 0.08092695 0.08193905 0.102684684
0.07441554 -0.024674408 0.0043512234 -0.033997472 0.08477975 0.009963777 0.03971466 0.030320156
0.018747743 0.069494426 -0.04466265 -0.058170073 -0.02738555 0.0112494575 0.04555443 0.056909446
-0.0005099977 -0.021489596 0.09853074 -0.029578043 -0.050632067 0.03735358 0.082448065 -0.01989861

fc.weight f4 [2, 128]
00000000: 9031 cd3d 390d c93c a74a 6cbd af9f c6bb
00000010: 0e78 f13c 2d28 ad3b 8137 b83c 8dc4 c2bd
00000020: e014 bebb fc5b e5bc e84b 3bbb 051e 46bd
00000030: ab23 543d d284 b33d 0391 a3bd 650d 8fbc
00000040: 40b8 4dbd a287 573d 6823 bc3d a054 9f3d
00000050: ecb5 ae3d 7945 04bd b3a6 733d 2805 913c
00000060: 9fdd 9b3c 589a cbbc 4e5e 543b 045b 713d
00000070: 86a6 40bd 3ba7 cfbc 0b84 093c 091b 10bd
00000080: 50ee a23b de97 263c 1927 72bc f996 25bd
00000090: 3924 343d 1cf4 173d b6c3 e7ba 6b42 37bd
000000a0: 9122 a23d f973 bb3c 9d0a 6d3d 22c2 5b3d
000000b0: 7197 883c 2f37 b73d b652 193b 31fe a33c
000000c0: 5fba 16bd 301b 3ebd 1f29 b03d baa2 69bd
000000d0: e74b cbbc 3dd7 cf3d 642d 823d 0666 42bd
000000e0: f447 70bd 5ccd 97bd 03e2 9cbc 9015 3b3d
000000f0: 2dbd 763d 9c63 09bd fdc0 c83d f014 b63d
00000100: 7e4f 683d 70d0 42bd aacd 54bc 12d7 56bc
00000110: 1aba f73c 9a2d da3d ce9d 6fbd d4db ca3d
00000120: 4808 65bd 4905 953d dbd7 c7bd 0b97 cb3b
00000130: d1fc f43b 5851 d8bd 55dd 87bc d7a5 403d
00000140: f132 e5bd 212b a03c 7e02 72bc dfd0 2fbd
00000150: bcb7 2a3d 2d14 743d f680 ccbd ca2d 72bb
00000160: c592 e03d 302a 37bc 5d08 cfbc ca67 a6bd
00000170: 53a6 09bd 95ba 7a3d 4b53 b43d cc77 a5bc
00000180: 3c88 cdbc ae29 d93c dae9 cc3c df81 a1bd
00000190: 2485 c4bd a5cb bbbd 2c7a 5f3c 39e1 9a3d
000001a0: 0ce4 7c3d 9a72 51bd a9e2 d63d c202 a13c
000001b0: 127b 62bb 1cb6 a23b efe9 503d 47b8 8fbd
000001c0: c68b 293c 618d 99bd 9727 9abc 81dc 4a3c
000001d0: 10af 64bd dec3 9d3d 0b0d b3bd 6000 323d
000001e0: b560 74bd 8873 6d3d bddc cd3d aeac 4bbc
000001f0: 2534 4abd cf49 393d f90b a0bc b808 b3bc
00000200: f061 5d3c 0c54 0cbd fbe6 283d ba3b 5ebd
00000210: e5df 65bd 03ae ce3d 3b1f 86bc 5caa 9cbc
00000220: 726d d23b 36e7 7e3d f2b6 a73d d9ab 7b3d
00000230: 6913 41bd c9cf 1bbd 2a96 8abd 9407 8f3d
00000240: d6fe 46bd cad7 9bbd 6c08 94bd 4b91 99bc
00000250: 55d0 c3bd c605 38bc 7127 60bd 226d 913d
00000260: 65c2 23bd 1619 9e39 8470 2cbd e11a b6bd
00000270: 6c5e f2bc 9fd5 b73c 4fc5 623d 0251 82bd
00000280: 2815 a4bc f40c 62bd 4d86 fb3c 1eb8 403d
00000290: 006e 25bd cf46 cebc d8bf 40bd 3bb5 61bd
000002a0: 2340 aebc a558 80bd 6572 c43d 4085 e2ba
000002b0: 7db9 303d fab1 b8bd 4176 bfbd 48b1 1fbc
000002c0: 479f ab3d 5fce 8d3d 5a78 e33c e4d7 b4bd
000002d0: 54c2 7c3d 938b 9fbd bc7e fbbc 790e ae3c
000002e0: 95c0 8c3d 5bc4 f43c 5ce1 bcbb 2f5d a1bb
000002f0: 42a5 a03b c3e4 8b3d 2a25 e23c 51c1 603d
00000300: 55b2 93bc ebbe bc3d a42f ac3d 4896 c83d
00000310: 9406 debd 0335 35bc b308 dd3d c8d1 2bbd
00000320: c0df b83d a9e7 04bd d710 7e3d 3360 94bb
00000330: 161e bcbd 105e 993d fbc7 60bd e2a9 98bd
00000340: a964 95bc b106 8ebc 5ee5 52bc e56f 913c
00000350: 5010 4b38 7371 c93c 2db4 f93c 3375 56bd
00000360: 2fd6 b7bd 84b0 4e3d 300f ab3c 9e4d a4b9
00000370: 2d91 9e3d fb8c dd3d 5702 95bd c597 60bd
00000380: 2602 9ebd 64ec 5abd 15f3 abbc 9c5c b2bc
00000390: d1b4 cc3b 585e 69bd 63f8 bf3d 2cb6 9dbd
000003a0: 05ee c3bd 26ef f03c 5442 b3bd 6e1d 8fbd
000003b0: 8127 aebd 5163 bcbd 13e1 75bd b1a4 4cbd
000003c0: 19e3 0bbc b383 3ebd 9f15 8abd e0e3 67bc
000003d0: cd07 8fbd 9776 9a3c f4fe 873d ee5b d4bd
000003e0: 6683 9a3d 96e9 a3bd d071 0938 4b3d a23d
000003f0: 3533 09bd a420 b9bc 9354 86bd 2737 d03d
0.10019219 0.024542438 -0.05768838 -0.0060615162 0.029476192 0.0052843303 0.022487404 -0.09510145
-0.0058008283 -0.027997963 -0.002857918 -0.048368473 0.051791828 0.08765568 -0.07986643 -0.017462442
-0.050224543 0.052619584 0.09186441 0.07779813 0.085307926 -0.032292817 0.05948515 0.017702654
0.019026576 -0.02485387 0.0032404843 0.05892469 -0.04703381 -0.025348296 0.008393298 -0.035182033
0.0049722567 0.010168044 -0.014779829 -0.040427182 0.043979857 0.037098035 -0.0017682228 -0.044741075
0.07916749 0.022882449 0.05787145 0.053651936 0.016673775 0.08946072 0.0023395247 0.020018669
-0.03679883 -0.046412647 0.08601593 -0.057039954 -0.024816466 0.10148475 0.06356314 -0.04746058
-0.05866237 -0.07412216 -0.01915074 0.04567486 0.060239006 -0.03354226 0.098024346 0.08890712
0.056716435 -0.047562063 -0.012988487 -0.0131128 0.030240107 0.10653229 -0.058500104 0.0990521
-0.0559161 0.07276399 -0.09757968 0.006213074 0.007476427 -0.1056239 -0.016585032 0.047033157
-0.11191357 0.019551815 -0.014771102 -0.042923804 0.04167913 0.059589554 -0.09985535 -0.0036953562
0.10965494 -0.011179492 -0.025272543 -0.08125265 -0.033605885 0.061213095 0.088049494 -0.020198725
-0.025089376 0.026509132 0.025013853 -0.07886099 -0.09595707 -0.091697015 0.013639968 0.07562489
0.06174092 -0.051134683 0.10492451 0.019654635 -0.003455822 0.004965557 0.051004346 -0.0701757
0.010348266 -0.07497669 -0.018817706 0.012381674 -0.055831015 0.07703374 -0.08742722 0.04345739
-0.05966254 0.057971507 0.10051868 -0.012431307 -0.049366135 0.045236405 -0.019536959 -0.021854743
0.01351212 -0.03425984 0.041235905 -0.05425618 -0.056121726 0.10091784 -0.016372314 -0.019124202
0.0064217383 0.06223222 0.08189191 0.061443184 -0.04713765 -0.038039956 -0.06766923 0.06983867
-0.048582874 -0.07609518 -0.07228169 -0.018746039 -0.095612206 -0.011231845 -0.054725114 0.071008936
-0.03998031 0.000301548 -0.04209949 -0.088918455 -0.02958604 0.02244073 0.05536395 -0.06363107
-0.02002962 -0.055188134 0.030703688 0.047050588 -0.040388107 -0.025180249 -0.047057956 -0.055104475
-0.021270817 -0.062669076 0.095921315 -0.0017282143 0.043145645 -0.09018321 -0.09348727 -0.009746857
0.08379989 0.06924128 0.027767349 -0.0883024 0.061708763 -0.077902935 -0.03070008 0.021247135
0.068726696 0.029878786 -0.0057641696 -0.0049244384 0.0049025128 0.06830742 0.027605612 0.05487186
-0.018029371 0.09216102 0.08407524 0.09794289 -0.108410984 -0.011060002 0.10792675 -0.04194811
0.09027052 -0.03244749 0.06202778 -0.0045280694 -0.09185426 0.07488644 -0.054878216 -0.074542776
-0.018236475 -0.017337175 -0.012872068 0.01775355 4.8414164e-05 0.02459023 0.030481422 -0.052357864
-0.08976399 0.050461307 0.020881265 -0.00031338347 0.07742534 0.108179055 -0.07275837 -0.05483224
-0.077152535 -0.053448096 -0.020989934 -0.021772675 0.006247141 -0.05697474 0.09373548 -0.07700762
-0.09566883 0.02941091 -0.087528855 -0.06988035 -0.085036285 -0.091986306 -0.0600291 -0.04996175
-0.008538031 -0.046512317 -0.06742405 -0.014153451 -0.0698391 0.018855376 0.06640425 -0.10369097
0.075445935 -0.08003537 3.276934e-05 0.07921847 -0.0334961 -0.022598572 -0.065591 0.101667695

fc.bias f4 [2]
00000000: 16b1 3f3d aaee 56bc
0.04679974 -0.013118425
