OpenPifPaf/models/pull-up_lstm.pth (torch, 339135 bytes, 6 tensors)

lstm.weight_ih_l0 f4 [512, 34]
00000000: 65ea ad3d 387b 64bc 4943 793d 8507 d0bb
00000010: 18a1 52bc 665d 7f3d be78 3f3c 7284 e9bc
00000020: 41c1 063d 081a 06bd 9941 0a3d 58c5 1c3c
00000030: 5e67 a9bc 8fb4 d73a c4e4 393d 1037 b63d
00000040: 87c7 a33d 53c5 9e3d b053 0c3d 21c4 883c
00000050: 2161 853c 2434 29bd d6a7 83bd 5793 98bc
00000060: 7aac 733c b9f8 053c 798b 2a3c 74d2 cfbc
00000070: 4b98 153d 7520 963d edf6 a5bc 2207 a4bd
00000080: 6520 91bc 09c2 7ebd 825b 233d 187d 713d
00000090: 40ed 8d3c 9e85 883d 2fc0 8b3d 0c2a 35bc
000000a0: c73d d23c 11cf ba3c 8104 47ba ccce 97bd
000000b0: e297 d4bc 6c32 31bd d626 e6bc 4b5d c13b
000000c0: c8c4 8dbd 755c 4a3d 6713 d03c 0e00 cb3b
000000d0: ecca b73d 8366 253d 3f19 cb3c 31dc a83d
000000e0: 16bf 3d3d a8be 8f3d a6c4 163d 877d a03c
000000f0: daef 383d c71c 7e3d d8a5 393c d8fa 44bd
00000100: c8c6 3cbc 3e99 9c3d 453e 883d 5f8f 8f3c
00000110: 0ae6 903c 634c 77bd b0d9 b23d 63d9 81bd
00000120: ff65 1bbd 2c20 a63d 48e0 26bd f70f f3bc
00000130: b6ad 633d 697c e7bc fb94 5abd 082f 2b3d
00000140: 9095 90bd e196 84bd 97de 263c 2769 353d
00000150: 583d 28bd bec3 2fbd ec65 003c 1d20 22bd
00000160: 2dd4 59bd a9f9 74bc 0d97 043d 4e7e c73d
00000170: f571 efbc 5243 65bd 9179 4ebd 8838 c2bc
00000180: 9828 5c3d 481c 893d 768f 15ba 67cd 283d
00000190: a729 72bc 9291 843d 64e4 a83c 412a cf3b
000001a0: 1a18 82bc f681 d93c 3235 1b3d 5099 4fbd
000001b0: 4084 acbd 7ba9 973d 0d34 85bc da5e 07bd
000001c0: 6e12 0d3c 9616 9dbd 72a0 673c 0d37 72bd
000001d0: c661 9e3d ddf2 8cbd 0dcc 093d cd37 263c
000001e0: 731c b2bc f284 933c c688 d43c 69cb cabc
000001f0: 4fac b4bd b39f d73c 29b0 96bd b132 f53c
00000200: 131b 0e3d e403 a53d 1f5e f93c ebad 1abc
00000210: b7aa b23d 8405 303d a8dc 4a3b 9750 063a
00000220: 4709 0e3d 9e09 df3d d456 aebc 23af 9e3c
00000230: 561b 79bc 3902 25bd ccf1 a6bc e0ba 49bd
00000240: 96b6 453d 9460 963d 7364 0abd 60fb 533d
00000250: b5e3 41bd 2fde c5bc c8a9 c5bd 2344 a2bc
00000260: 07e6 a6bd 1b57 ac3d 980a b33b c454 f73c
00000270: d4a2 953c e02c b9bc 0a31 58bd c866 ebbc
00000280: 04bf 753d b0c6 40bd 3c17 113d f63c 2c3d
00000290: 48e8 d0bc cc96 ffbc 4f56 963d 9685 5b3d
000002a0: bbe5 70bd a8ca 513c cfd8 c0bd 9ac3 a5bd
000002b0: 7180 9cbd f30c c4bd 72cb 953b 1b07 243d
000002c0: 81c6 de3c 5dab 143d e6c6 2e3c c4df 76bb
000002d0: d5ff 0bbc 126d 7dbd 5088 6d3b 9733 d5bb
000002e0: 29eb 0ebd dc60 883d 1aa4 ab3d 8b8a 0bbc
000002f0: 1288 f937 6ad9 1bbd 066f a23d ef19 23bd
00000300: 53ff b7bd 9894 a33a 41ed 5dbd 6005 8b3d
00000310: 6f80 713d ba5b 773d 7c16 8abd 9c05 fbbc
00000320: f7b7 533d 7963 293d 1faa 9bbd 2464 b43c
00000330: d037 8cbd c53c 8a3d 52a0 033c 3314 a7bd
00000340: 9214 083d f922 10bd 3fc0 033d 862e 19bc
00000350: f39f 2ebd a236 45bd b104 fdbc 7d6b 3bbd
00000360: bc81 723d 2071 8fbd 6b0f a9bd 384d ee3b
00000370: 6233 82bd 6cf7 42bd 47ca d6bc 2a10 283d
00000380: c606 1d3d db7b 7dbd 3c2d a03c 0b2c ab3d
00000390: a092 57bc d830 36bd c4aa 0fbd 71d9 a23b
000003a0: 6044 913c acf9 94bc 00b3 8e3b 8833 acbc
000003b0: 1319 8ebd b4f0 07bd 3635 59bd f6c7 8b3d
000003c0: 1151 d937 e4e5 edba 5715 3e3d ccc6 3ebd
000003d0: 90f8 2d3b 78b2 623d 73e8 a83b 63c6 983b
000003e0: 5a30 4abb 6b48 143d e5bf a23d a9b6 ee3c
000003f0: fea3 aabd b4d6 1dbd f2b0 78bd c25b 223d
0.08491973 -0.013945393 0.060855184 -0.0063485526 -0.012855791 0.06234493 0.011686502 -0.028505538
0.032899145 -0.03273967 0.033753965 0.009568535 -0.020679172 0.0016457009 0.045384184 0.08897221
0.07997041 0.0775248 0.034259498 0.016695084 0.016281666 -0.04130949 -0.064284965 -0.018624945
0.014872665 0.008176976 0.010409229 -0.025368907 0.03652219 0.073304094 -0.020259345 -0.08009173
-0.017715642 -0.062196765 0.03988219 0.05895719 0.017325044 0.066661105 0.068237655 -0.011057388
0.025664223 0.022803815 -0.00075919187 -0.0741249 -0.02595133 -0.043260977 -0.02809469 0.005901014
-0.06922299 0.04940458 0.025399877 0.006195075 0.08974251 0.040380966 0.024792312 0.08245123
0.046324812 0.07018787 0.036808632 0.019591106 0.045150615 0.062039163 0.011331044 -0.048090786
-0.0115220025 0.07646416 0.06652502 0.01752442 0.017687816 -0.060375582 0.08732927 -0.06340291
-0.037939068 0.08111605 -0.040741235 -0.029670699 0.055585586 -0.028257566 -0.053364735 0.0417929
-0.07059777 -0.0647409 0.0101849055 0.044289734 -0.041074127 -0.042911284 0.0078368 -0.039581407
-0.053180862 -0.014952102 0.032370616 0.097408876 -0.029229144 -0.055972405 -0.050408904 -0.023708597
0.05374965 0.06694847 -0.0005705276 0.041211512 -0.0147804385 0.06473078 0.020616718 0.0063221757
-0.015880633 0.026551228 0.037892528 -0.05068332 -0.08423662 0.07405373 -0.016260171 -0.033049442
0.008610351 -0.076703236 0.014137374 -0.05913453 0.077334926 -0.0688226 0.033641864 0.01014514
-0.021742081 0.01800773 0.025944125 -0.024755197 -0.08821928 0.026321268 -0.07357819 0.029931398
0.03469379 0.08057383 0.030440388 -0.009440879 0.087239675 0.04297401 0.0030954275 0.0005123703
0.034676816 0.10890506 -0.021281637 0.019370621 -0.015204271 -0.040285323 -0.02037897 -0.049250484
0.04826983 0.073426396 -0.033787202 0.0517534 -0.0473363 -0.024153797 -0.09651524 -0.01980788
-0.08149343 0.084150515 0.0054639094 0.030191787 0.018266119 -0.022604406 -0.052781142 -0.028735533
0.05999662 -0.047064483 0.03542255 0.042050324 -0.025501385 -0.031199835 0.07340681 0.053594194
-0.058812838 0.012804665 -0.09416353 -0.08093949 -0.07641686 -0.09572782 0.0045713717 0.04004584
0.027194263 0.036296237 0.010667538 -0.0037669996 -0.008544882 -0.061871596 0.0036244579 -0.006506394
-0.034892235 0.066590995 0.08380909 -0.008516918 2.9746476e-05 -0.03804914 0.07931332 -0.039819654
-0.08984246 0.0012480197 -0.05418134 0.067881346 0.058960374 0.06039021 -0.0674257 -0.030642323
0.051689114 0.04135463 -0.076008074 0.022020407 -0.06846583 0.06749872 0.008033829 -0.081581496
0.033222742 -0.035189603 0.032165762 -0.009349471 -0.04263301 -0.048147805 -0.030886026 -0.045756806
0.059205756 -0.07003999 -0.08254894 0.007272389 -0.06357457 -0.04759924 -0.0262195 0.04103104
0.038336538 -0.061885696 0.01955282 0.0835801 -0.013157517 -0.044480175 -0.035074964 0.0049697687
0.017732799 -0.01818546 0.0043548346 -0.021020666 -0.06938376 -0.033188537 -0.05302926 0.06825249
2.5906165e-05 -0.0018150178 0.04640707 -0.046576306 0.002654586 0.055345982 0.005154663 0.0046623214
-0.0030851574 0.036201876 0.07946757 0.029139834 -0.0833206 -0.038534835 -0.060715623 0.03963829

lstm.weight_hh_l0 f4 [512, 128]
00000000: 83bd 3ebd 4092 2c3c feb4 32bd bac6 06bd
00000010: f9bf 5b3d 4a17 94bd cdab 113d 222f cebd
00000020: b3c2 5bbd 5524 90bd dc46 8a3d b8fc 6f3d
00000030: e263 5bbd 323f 99bd ccf4 68bd 4907 753d
00000040: 4d4c b9bc 1332 27bc 0e6a 8c3c 1de4 83bd
00000050: 2d81 aebc 355b 86bd eb69 f6bc 2e7c b23d
00000060: 44ca 71bd 27c5 5e3d 1d24 1ebb f60d a9bd
00000070: efce 54bd 5579 b1bd 57ca ccbd 015d 573c
00000080: 6df8 673d 41fe 3c3c ff30 473d 029c 79bd
00000090: ecc0 7dbd a300 adbb 1579 d63d 5a0b 87bd
000000a0: 9e0f 0ebd b3f0 373d 6e99 8abd 44ae c0bc
000000b0: f179 83bd 29eb 2ebc 1718 0fbd 6c5d 083b
000000c0: 8db3 91bc 0215 a5bd 4ce6 05bd b212 b6bc
000000d0: 4712 73bd 73db ba3d 9554 0b3d 54d4 4e3d
000000e0: 4895 0cbd 72d6 8b3d 3a37 773d 2266 aa3c
000000f0: d568 b33d 4294 223d 8af1 ffba 7b48 ea3b
00000100: 2644 843d b5a7 ac3d 110d e7bd a464 49bb
00000110: a489 87bc 0b57 fe3c 793d 1e3d 39ff 923d
00000120: d3c2 87bd e56c d13c b7c9 633d 2e31 233d
00000130: 681b 7b3c c3f5 a13d 8fd6 2cbd db9a a73c
00000140: 6beb cd3d b16f bdbb 39f0 523d 6ce9 aa3c
00000150: 858f 6b3c 7e91 83bd 302e 93bd aee6 6fbb
00000160: 63f6 8abd dca0 0dbd 9c38 3b3c b376 9a3c
00000170: d925 0fbb 4a8e 32bd ff72 c13d 8c14 e7bc
00000180: 5e41 b8bb eb94 bc3c 4841 613b b201 8abd
00000190: 675f 5f3d 042f 95bc 28ff 4e3c b529 85bd
000001a0: d0d9 0dbc 97e0 a0bd 836a 8b3b 0b62 583b
000001b0: 93c5 483c 91ad 9bbd c5df 69bc 18ef db3d
000001c0: 9f57 d8bc 6656 35bd c1eb 683d 80da 55bc
000001d0: 3997 cc3c 953a 4e3d f8a8 2abd 86e1 823d
000001e0: dbfa b53a 65ca a2bb 1533 8ebd 6bbc 843c
000001f0: 4449 8f3c 3c4b 13bd 2eb1 c43d 25ca a3bc
00000200: c1a8 9f3d 17b7 843d b948 42bd c1f1 83bd
00000210: ba93 9b3b f0a5 bfbd 28b9 033b 59f4 62bd
00000220: 7676 9d3d 0d55 2e3d 844b 0c3d 0dfb b6bc
00000230: 243e bebc e10e 7b3c 91bf 79bd e648 4abc
00000240: 4cd8 663b bc51 a2bc 5cc5 a2bd 2c00 be3c
00000250: b73a eb3c d517 31bd b36f 9fbd 56aa 2ebd
00000260: f844 723d 88ff cabd 1bec d33c 38a8 c5bc
00000270: 05f1 393d 23d9 1a3d 8238 98bd 74dd 8d3c
00000280: cb76 643c c25a c53c 32f0 85bd 20c4 25bd
00000290: 1d7e 5abb b56b a8bd 708a f9bb b94e 773d
000002a0: 11f2 08bd 6c94 40bc 2a77 bb3c acc9 b73c
000002b0: 35d3 6f3d 4da2 2d3d 5afb a1bd 5a2f e4bd
000002c0: 0d3e 7c3d 9644 e5bc 07c7 163d fc93 853d
000002d0: cb56 c73c 908d 8dbd a3d4 40bb 89a5 2ebd
000002e0: 9981 ef3b c072 203d 7e60 f43b 449c 013d
000002f0: e909 333d 1489 b3bd 9f10 8ebd 0832 d6bc
00000300: 5b24 a23d 103a 23bd f05f 88bb b86a f5ba
00000310: 29d5 5b3c 0514 333b 01bc 8c3d 45fa 40bd
00000320: 4fca 44bc 329f b83d b9ae c7bc 341b d23b
00000330: fdf5 cd3c f28f 463d ba85 4dbd f529 563d
00000340: 5dd0 8a3d abb9 a4bb 2993 673d 488c 5c3d
00000350: afe5 42bd 42b3 e9bb cd21 513c 1292 d1bd
00000360: 37a4 0cbd 66cb 31bd 22f9 073d b06a 5c3d
00000370: a7f4 2c3b 7c67 c9bd 8f6d 233d fe9b 153b
00000380: c0a5 883c a2cf a03d 3351 263d 8937 753d
00000390: 2319 373d ce87 2a3d 456b 27bd 9ffd 343d
000003a0: cfe5 ebbd 84d4 9fbd f5d2 c3bd 1364 613d
000003b0: 6969 27bd 0d44 653d e81e 25bd b4dd 07ba
000003c0: e2c2 943d aae9 993b c5fa d53d d6bc bcbd
000003d0: 9986 90b9 ba13 42bd babe cc3d bf11 23bd
000003e0: 06d5 873c 463a 363d 1a3a 18bd b575 a1bc
000003f0: d169 44bc 2943 04bd 6939 593b 3b19 883d
-0.04656745 0.010532916 -0.04362964 -0.032904364 0.053649876 -0.072310045 0.035564233 -0.100675836
-0.053652477 -0.0703818 0.067517966 0.05859062 -0.053562053 -0.07482757 -0.05687408 0.0598214
-0.02261939 -0.01020481 0.017140415 -0.064399935 -0.02130183 -0.06560365 -0.030079802 0.08715092
-0.059030786 0.054387238 -0.0024130412 -0.08254616 -0.05195516 -0.086657204 -0.09999531 0.013144732
0.0566334 0.011535228 0.04863071 -0.060939796 -0.061951563 -0.005279617 0.10472313 -0.06593962
-0.034682862 0.044907283 -0.06767546 -0.023520596 -0.06419743 -0.010676184 -0.034935083 0.0020807637
-0.017785812 -0.080606475 -0.03269033 -0.022225711 -0.059343603 0.09123888 0.03401621 0.05049546
-0.034322053 0.068280116 0.060355403 0.020800654 0.087602295 0.03969217 -0.001952694 0.0071497536
0.06458311 0.08430425 -0.11281789 -0.0030730153 -0.016545124 0.031047365 0.038632844 0.07177586
-0.06628957 0.02556462 0.055612292 0.039841823 0.015326358 0.079082035 -0.042196807 0.020459583
0.10054668 -0.005781137 0.051498625 0.020863257 0.014377479 -0.06424235 -0.07186544 -0.0036606002
-0.06785276 -0.034577236 0.011427071 0.018855428 -0.0021842627 -0.04359273 0.09445762 -0.02820804
-0.0056230268 0.023020228 0.0034371186 -0.067386046 0.054534342 -0.018210895 0.012634076 -0.065020956
-0.008657888 -0.07855337 0.0042546405 0.0033017423 0.012254137 -0.076014645 -0.014274542 0.10738963
-0.026408968 -0.04427185 0.056865457 -0.013052583 0.024974452 0.050348837 -0.041665047 0.063906714
0.0013883965 -0.004967975 -0.06943337 0.016203126 0.01749099 -0.03596042 0.09604107 -0.019993851
0.07795859 0.06480234 -0.047432635 -0.06442595 0.004747835 -0.09357822 0.0020099375 -0.05540881
0.0768861 0.04256158 0.034251705 -0.022336507 -0.02322299 0.015323372 -0.060973708 -0.012346482
0.0035224138 -0.019814365 -0.079477996 0.023193441 0.02871452 -0.04323562 -0.07784977 -0.042642914
0.059147805 -0.0991202 0.02586942 -0.024128065 0.04539587 0.037804734 -0.07432653 0.017317511
0.013944338 0.024091128 -0.06539954 -0.040470243 -0.003333933 -0.082236685 -0.00761538 0.06037781
-0.033433978 -0.0117541365 0.02288397 0.022435032 0.058551032 0.04239111 -0.0790927 -0.11141844
0.061582614 -0.027986806 0.0368109 0.065223664 0.024333378 -0.069117665 -0.0029423616 -0.042638335
0.0073091504 0.039171934 0.007457792 0.031643167 0.043710623 -0.0876638 -0.06936764 -0.026146904
0.079170905 -0.039850295 -0.0041618273 -0.0018723821 0.013417521 0.0027325165 0.068717964 -0.047113676
-0.012011125 0.09014739 -0.024375306 0.0064119343 0.02514171 0.04847712 -0.05017636 0.052286107
0.067780234 -0.005027016 0.056536827 0.05384472 -0.047582325 -0.007131965 0.012764406 -0.10232939
-0.034336295 -0.043406866 0.033196576 0.053812683 0.0026390941 -0.09834191 0.039899405 0.0022828574
0.016680598 0.07852103 0.04060478 0.059867416 0.044701707 0.04163342 -0.040873785 0.044187184
-0.11518442 -0.07804206 -0.09561721 0.05502708 -0.04087201 0.0559731 -0.040312678 -0.00051828776
0.072637334 0.0046970444 0.10448221 -0.09215705 -0.00027566103 -0.047382094 0.09997316 -0.039811846
0.01658107 0.044489168 -0.037164785 -0.019709447 -0.011988119 -0.03229061 0.0033145791 0.06645437

lstm.bias_ih_l0 f4 [512]
00000000: 17f1 7f3c 0c60 8d3d e033 06bc cc62 a53d
00000010: 198b a53d c52e 6ebc 05c4 d4ba a5ba 63bd
00000020: 61fc 4abd 9a44 ecbc b4a7 f4bc 69f1 263d
00000030: 3757 77bd bbfe 6dbd 9c02 8e3c c5e9 e83d
00000040: 1524 a93d 12c2 95bd 46c2 94bd 7592 643c
00000050: c34d c43d 21c5 763a 5281 c03d 9867 553d
00000060: bbd8 453d 208b a83d ba94 2c3c ec29 8a3d
00000070: 9772 2cbd 2d34 153c a1e1 233c bdd9 423d
00000080: 3c69 1bbd 3946 f63c 24fd 183c c1a5 c8bb
00000090: 4bf7 5f3d 85b9 883d 7520 63bd 51af 1c3d
000000a0: ded4 533c 64e7 993d f6dd b43d 34bf 9abd
000000b0: 46bb 3bbb 313c 90bd a3ef 53bd 3191 683d
000000c0: 9cf3 973c 876a aebc 8022 893d 87fb a93d
000000d0: 045b a13c 6852 3bbd 929b f4ba 259f 5c3d
000000e0: c03f adbc d7ec 703c 7a04 443d c2f7 0d3d
000000f0: b809 c33d b94a 4a3d 6272 6dbd 6520 df3d
00000100: b971 10bc 1026 593d 4a6a 7c3d 67ec e53d
00000110: 6bc0 6a3d b08d 2a3d d53a 473d 40db 62bc
00000120: 69fe b13c e966 3bbd 5147 553d f448 bfbd
00000130: ca24 2d3d dc93 02bd 2d8a 33bd 18bc 3b3c
00000140: f419 ecbc e919 6fbd 5402 c7bc 1799 3b3c
00000150: 48af 87bd adcf c6bb 626d 42bd e200 d73c
00000160: 4242 9f3b 5e57 42bd ea4c ccbc f10e 533d
00000170: b2f4 fc3c 37a7 ab3a bf50 1abc ad8e f1bc
00000180: 26f4 c53d bb55 33bc fd25 0e3b b42a a3bc
00000190: 54b5 d7bc 981c d43d e9a7 29bd 5484 8f3d
000001a0: e928 783d 4f89 30bc 0e6d 9bbb 48f2 6c3d
000001b0: fb16 933d 021a 93bc 0ff0 70bc 8ec1 af3d
000001c0: 984e a23b 3fd3 5c3d 3026 06bd 5d76 393c
000001d0: 958d 653d 1d07 cd3c c7fc b93d 9a28 25bd
000001e0: 04b1 2dbd bb9b 6e3d f1c5 de3b a2bb 9a3d
000001f0: 919e 6cbd 4e6c 30bc da19 03bc cbc3 fe3a
00000200: 4e07 493c fa79 d63d b235 1bbd d111 37bd
00000210: d05f a83d 0ca4 e4bc e099 60bd 6ede 89bc
00000220: 436f e23d d218 ba3d ab45 9f3d 52ec ab3d
00000230: 6a00 523d d37c a5bd 1f50 5f3d e415 1e3d
00000240: 6c4a c73d 83b8 81bd 07b4 e83c b285 40bd
00000250: d5d3 c03c b48b 933c 5500 833d 2341 7cbc
00000260: d6bf 9b3d 3e57 483d 76db a33d 96b3 41bc
00000270: 7887 e33d c98d 9bbd 213a 1f3d e6f3 a03c
00000280: f96e 1dbc f0f7 293d b103 84bc 5d2d 393c
00000290: f0d3 e13d c06b 7fbd 8793 ccbd 934f de3d
000002a0: 7bd5 24bc a2c7 9a3d 7696 e63d 75d6 563d
000002b0: 6706 983d bd81 803c 7b10 ca3d e248 f5bc
000002c0: 8f05 0c3c a94b a03d 52f6 393d 5d0e b23d
000002d0: 580b 933b 492f 893d 8218 1c3d 961a ce3d
000002e0: 77d3 5cbd 08ce 71bc 6788 6b3d c36a 80bb
000002f0: 0201 7bbc 0708 953d f36e 3b3d 9aaa d63d
00000300: 7804 fe3c ee39 913d 4e8c 063d 5788 023d
00000310: 6e98 06bd dfa1 873d 2aeb 893d da5c 223b
00000320: cf1c 923d 40ce ca3c 5bfe 013d 8b62 ecbc
00000330: 8f2b ef3d c641 b03d e252 60bd 6c8f 7e3c
00000340: 1ca6 6fbc 0dde 82bd 8071 c43d 4a99 0d3d
00000350: e80b 3d3b 10b2 9d3d 4bde 583d fd38 dd3d
00000360: d49c cf3b 1972 b5bc 588c 803d ecd3 42bd
00000370: 3fcb 4abc cec1 8f3c f4da c6bc 2938 d33d
00000380: f065 26bd 3069 b73d b062 4ebb 123d 35bd
00000390: ad77 a9bb f139 1f3d c739 56bd 7d03 5a3d
000003a0: 1242 d13b 4c70 393d 3eba 7b3c e62c 91bd
000003b0: 4b83 bbbc e90f e93d 9c12 8b3d 3e45 4cbc
000003c0: 202b 3ebc 0eb9 1ebd efc1 8d3d 60ec 013d
000003d0: 0c1a ae3b 7153 d23c 633e 87bd b905 9c3c
000003e0: c888 b23d 801a 973d ab82 7a3d 5ba4 a33c
000003f0: eaa0 243d da5f 043d a640 893d 0ca5 4fbd
0.015621445 0.06903085 -0.008191079 0.08075485 0.080831714 -0.014537518 -0.0016232735 -0.05559792
-0.049557094 -0.028841306 -0.029865123 0.04075757 -0.06038591 -0.058104258 0.017335229 0.11372713
0.08258835 -0.073124066 -0.07263617 0.013950934 0.09585144 0.000941353 0.09399666 0.052100748
0.048302393 0.08229661 0.010533506 0.06746277 -0.04210147 0.009106678 0.010002525 0.047570933
-0.037942156 0.030062782 0.009337697 -0.006123275 0.054679196 0.0667601 -0.055450875 0.038253132
0.012929169 0.075148374 0.08831398 -0.07556 -0.002864556 -0.070427306 -0.051742207 0.05677909
0.01854878 -0.02129103 0.066960335 0.08299928 0.01969672 -0.045732886 -0.0018662086 0.05386271
-0.021148562 0.0147049045 0.04785583 0.03466011 0.09523338 0.049387667 -0.057970412 0.10894851
-0.008816176 0.053014815 0.061624803 0.11226731 0.05731241 0.04163903 0.04864009 -0.013846219
0.021727758 -0.04575244 0.052069966 -0.093400866 0.042271413 -0.03187929 -0.043832947 0.011458419
-0.02882097 -0.05837432 -0.024293102 0.011450074 -0.06625229 -0.0060672374 -0.047467597 0.026245538
0.0048601935 -0.0474466 -0.02493902 0.05152792 0.030878399 0.0013096099 -0.009418665 -0.029486978
0.09665708 -0.010945733 0.0021690123 -0.019917823 -0.026331581 0.10357016 -0.041419897 0.070076615
0.06058589 -0.010774924 -0.004743225 0.057848245 0.071821176 -0.017956737 -0.014705672 0.085818395
0.0049532168 0.053912397 -0.032751262 0.011319724 0.056043226 0.025027806 0.090814166 -0.040321924
-0.042405143 0.058253985 0.006798499 0.07555319 -0.05776841 -0.010768009 -0.008001769 0.0019437013
0.012269808 0.10472484 -0.037893005 -0.044694725 0.082214 -0.027910255 -0.054834247 -0.016829696
0.11056378 0.09086765 0.0777696 0.08394684 0.051269926 -0.08080449 0.05451977 0.038595095
0.09730992 -0.06334021 0.028406156 -0.0470025 0.02353851 0.018010952 0.06396548 -0.015396389
0.07604949 0.048911326 0.08000843 -0.011822602 0.11109823 -0.07595403 0.038873795 0.01964755
-0.0096089775 0.041496217 -0.016115041 0.011302319 0.11026752 -0.062358618 -0.09989076 0.10855021
-0.010060663 0.07557608 0.11259167 0.052450616 0.07423096 0.015686864 0.09866425 -0.02994198
0.008546247 0.07826931 0.045400925 0.08694146 0.0044874363 0.06698472 0.03810931 0.100636646
-0.053912606 -0.014758594 0.05750313 -0.003918977 -0.0153200645 0.07276922 0.045760106 0.104817584
0.03100799 0.07091127 0.03284865 0.031868305 -0.032860212 0.06622671 0.06734307 0.0024774582
0.07134401 0.02475655 0.031736713 -0.028855583 0.1167823 0.08606295 -0.054766543 0.015537124
-0.014627006 -0.06390009 0.09591961 0.034570016 0.0028846208 0.07699978 0.05294637 0.10801885
0.006335834 -0.022149133 0.062767684 -0.047565386 -0.012377559 0.017548468 -0.024274327 0.10313446
-0.04062456 0.0895561 -0.0031491928 -0.044247694 -0.005171737 0.038873617 -0.052301195 0.053225983
0.00638605 0.04527311 0.015364228 -0.07088642 -0.022889754 0.11379988 0.06790659 -0.0124676805
-0.0116069615 -0.0387507 0.069217555 0.031719565 0.0053131636 0.025674554 -0.06603696 0.019045698
0.08717495 0.07378101 0.06115977 0.019975832 0.040192522 0.032317974 0.06701784 -0.05069451

lstm.bias_hh_l0 f4 [512]
00000000: 7745 a33d 980c c33c e3c6 363d c8d0 173b
00000010: 2396 3f3d 08f3 403d 8078 083d dcf2 a03d
00000020: 137d d53d b929 bd3d 3b84 863d 5fdc be3d
00000030: c91c 963d 0e63 84bd 3b43 10bc 6749 81b9
00000040: 2b78 a8bb 82c7 bdbb 2792 92bd 1c6f 623d
00000050: b737 98bc e4ab 483d 3901 1b3d 681e d2bc
00000060: 1c55 783d d143 773c df30 c13d 1f22 1abd
00000070: 206e c63d b6ea 54bd 31c1 7d3c 83cd 58bd
00000080: fdaa 213d 5db0 8c3a 44f7 403c 72ab e63d
00000090: b6e8 81bd 0364 923c 0dd0 92bc e36f c63d
000000a0: d991 54bd a6d6 b43d b509 463d 1c36 1c3d
000000b0: 3955 87bd 8561 003d 2a73 48bb 4d8d 113a
000000c0: 323f c53d 3d68 96bc ddc2 a03c 9268 ae3d
000000d0: fb33 93bc e936 243c e65c de3c d5d0 0d3d
000000e0: 4f84 003c 0e2f 7dbd b8a3 10bd ce9d 0dbc
000000f0: 7ff0 0f3d 9542 9ebc 3c8e 0ebd 320c 1b3d
00000100: 51a4 69bd 12c3 a4bc c250 053d 39c1 45bc
00000110: d182 59bd 8182 af3d 1719 6d3a 8e7d ec3d
00000120: cc53 61bc d96e 2d3d ed35 ac3c 0cf1 86bc
00000130: baec 793d 42f4 313c 503e 993c c056 593c
00000140: 3aaf 1abd 2a47 df3c bc15 433d 2edf ad3c
00000150: 1295 95bd ac82 0bbd 1843 4bbc 9028 acbc
00000160: fe6f 153d 3eea 003d 6845 e33d 2a1d 553d
00000170: 0dca 7e3d feb8 df3d 0bc0 653c bf80 d3bc
00000180: 045d d23d f60e a23c c3c4 bf3d 8f5b 25bc
00000190: 6ef8 db3d 9961 2abc 4e9d a8bd 17a2 2f3b
000001a0: c7d4 273d 455a 0d3c 7017 343d b226 86bc
000001b0: 580b 2abd 7ed4 11bc b0b3 413d e365 af3d
000001c0: 173e 5ebd 2ae9 ad3c a37e 223d bc87 82bd
000001d0: 426d 893d 0e99 293c 865f 923b 9b13 3a3d
000001e0: d974 fb3c 344a 863d 7924 dd3d 48a8 51bd
000001f0: 6582 c93d 96c8 babd 8293 8e3d 6543 27bd
00000200: 0843 c93d 7417 5ebc b36a 90bd a1a7 8c3d
00000210: 2e89 723b 5767 973d 74fc 9b3d 2176 5bbd
00000220: fd48 ad3d 705e 8e3b 710b a23d be4f ec3d
00000230: c3f4 32bc 25b7 9abd c3b6 a03d 2249 18bd
00000240: 9640 4dbd 7fa3 48bc c54a 213d 12fd 8fbd
00000250: 4a65 72bd e606 ce3c bd9f 58bc 6919 393d
00000260: a842 9c3d 100c 993d 8ce5 50bc 2f45 793d
00000270: 4c0a 7cbd d5b3 8cbd d266 e4bc b2e1 e73d
00000280: 6cc8 1e3d 2c0c 51bd a433 473d 9c20 893a
00000290: 21a5 773d acd2 423d 546c 3b3c 146b b13c
000002a0: 2e1a 723d 4a2e b53d 871d a93d ae2c abbd
000002b0: 1d69 9c3d 37de 043d 5840 50bd 7d56 9b3b
000002c0: e6e8 2ebd b953 f63b 3892 053c 4834 283d
000002d0: 47ef 21bc 1072 6a3d 1649 a33d 9552 5a3d
000002e0: 2a6f 4dbd 0676 2c3c 72fe bd3d ea22 92bd
000002f0: d7c0 19bd fc50 a73d 01be 0c3d 8339 26bd
00000300: b331 ad3d 35d2 e43d e749 e73d a768 933d
00000310: 62e1 6bbc 9939 80bc ccca 39bd 72f3 643d
00000320: 4f83 53bd 53b5 d03d c8d9 95bc 3638 6d3c
00000330: d649 b03d bd6e c83c 5c60 0dbc 8129 e83d
00000340: 953f 8c3d e5c9 a83d ebc7 613d 6019 8fbc
00000350: 796d cb3b bef7 c93d 2aa0 833d 7ec3 c43c
00000360: 683a e63d 3f51 943d 2005 4fbd 2a8d 1c3d
00000370: 31f4 9c3c 272c b23d 9ad4 50bd 9d7e 1dbd
00000380: b07e d33c 5475 91bd 3a58 37bd 00b1 c8bd
00000390: 5c35 443d 4b9a 8f3d 8c2f 6fbd a26e 34bd
000003a0: 29a9 c53d 87d1 e1bb a0e4 7d3c 56cf 063d
000003b0: 49ba c53d 213a 43bd 8b9b 353d a69b 203d
000003c0: 1f66 b53d 9e7e 2e3b 05f9 c63b b7f1 153c
000003d0: 7b58 f63d 2959 84bc 9311 bb3d 8ae8 8abc
000003e0: d1ef 053d 5913 3abd cfed d7bb f62d 543d
000003f0: 7653 5d3d 10fd a2bd 2b2e a33d 8f4c bc3d
0.07972234 0.023809716 0.044623267 0.0023165215 0.04677404 0.047106773 0.033318043 0.07858822
0.10424247 0.092364736 0.0656819 0.09319376 0.07329709 -0.06464206 -0.0088050915 -0.00024659486
-0.0051412783 -0.0057916055 -0.071567826 0.055281743 -0.018581254 0.048992053 0.037842963 -0.025649264
0.06062804 0.015091852 0.094331495 -0.037630197 0.096889734 -0.05198165 0.015487955 -0.052930366
0.039469708 0.0010733713 0.011777703 0.11263169 -0.06343214 0.017869955 -0.017921472 0.096893094
-0.051896904 0.088300034 0.0483491 0.03813754 -0.06608052 0.031343002 -0.0030586221 0.00055523665
0.09631194 -0.018360252 0.019624168 0.08516039 -0.017969122 0.010022857 0.027143907 0.034622986
0.007844045 -0.061812453 -0.035312384 -0.008643581 0.035141464 -0.019318858 -0.034803614 0.037853427
-0.05704147 -0.020112548 0.03254772 -0.012069994 -0.053103272 0.085698135 0.0009044571 0.11547385
-0.013752889 0.04234204 0.021021808 -0.016472362 0.061016776 0.010861458 0.01870647 0.013265312
-0.037764765 0.027255613 0.04762815 0.021224584 -0.073038235 -0.034060165 -0.012406133 -0.021015435
0.036483757 0.03147339 0.110972226 0.052029766 0.06220441 0.10923956 0.014022837 -0.025818227
0.102716476 0.019782525 0.09363701 -0.01009263 0.107407436 -0.010399246 -0.082331285 0.0026799494
0.040974405 0.008627479 0.043967664 -0.016375873 -0.041514724 -0.00890076 0.047290504 0.08564355
-0.054258432 0.021229345 0.03967155 -0.063735455 0.067102924 0.0103514325 0.0044669537 0.045428853
0.030695366 0.06557122 0.10797972 -0.051185876 0.09839324 -0.0912029 0.06961729 -0.040835757
0.09827238 -0.013555396 -0.07051601 0.0686791 0.0037008035 0.073927574 0.07616511 -0.053579453
0.08461187 0.004344754 0.079123385 0.11538647 -0.010922614 -0.07554463 0.07847359 -0.03717912
-0.050110422 -0.012246012 0.039377946 -0.07030691 -0.059178628 0.025149774 -0.013221678 0.04519025
0.07629901 0.07473004 -0.012750041 0.060856994 -0.061533257 -0.06870238 -0.02788106 0.11322345
0.038765356 -0.051037 0.048633233 0.0010461989 0.060460214 0.047564194 0.011439402 0.021657504
0.059107 0.088467196 0.08257585 -0.08358131 0.07637236 0.032438483 -0.050842613 0.004740535
-0.042702578 0.0075173047 0.008152537 0.041065484 -0.009883708 0.057237685 0.079729244 0.053301413
-0.050154842 0.010526186 0.09277047 -0.071355656 -0.037537422 0.081697434 0.03436089 -0.04058219
0.08456745 0.11172906 0.11293393 0.07197695 -0.014396997 -0.015652465 -0.045359418 0.05589623
-0.051638898 0.10190835 -0.018292323 0.014478734 0.08607833 0.024466867 -0.008628931 0.11336041
0.06848065 0.08241633 0.055122297 -0.017468154 0.0062081185 0.09861706 0.06427033 0.024019
0.11241609 0.07242059 -0.050541997 0.038220562 0.019159408 0.08699828 -0.050984003 -0.038450826
0.025817245 -0.07102457 -0.044761874 -0.09799385 0.04790245 0.07011851 -0.058394954 -0.04405082
0.09651405 -0.0068914327 0.015496403 0.032912575 0.09654672 -0.047662858 0.04433779 0.039210938
0.08857369 0.0026625763 0.006072166 0.009151868 0.12028595 -0.016155796 0.091342114 -0.016956586
0.03269941 -0.045428608 -0.0065896283 0.051801644 0.054034673 -0.07958424 0.0796779 0.0919429

fc.weight f4 [2, 128]
00000000: 6d5b 673c 5f71 c33c 04d8 ccbc 64de 0a3d
00000010: 36d0 9cbd a327 c53c 31a5 08bd 4788 413d
00000020: 9d54 0e3d ad25 e33b 2be4 a93d 1db9 ebbc
00000030: 265d d4bd 87c0 5e3d 8f89 0fbd b4fa 6bbd
00000040: 3a11 42bd 4196 2c3d ed68 353d 82e5 9e3c
00000050: eb90 8f3d 31af c93b d220 8a3d f9ac 9fbd
00000060: 17a1 343d e07a 9d3d 16a9 17bc 4797 a33d
00000070: 5d39 a13a c639 ce3c 7814 e23d 371f a43c
00000080: 7a7f e53d 089b 3b3c 7edd 7fbc 94b1 d239
00000090: 668a d0bd ab40 3fbc 28fc c6bd f4a9 45bd
000000a0: f2ad 303d 9511 debd 2ee5 5dbc 6b13 c73d
000000b0: 6e89 82bc 6f4e 45bd 967b 293d 8381 f63d
000000c0: ad73 bebd b7a4 cd3d 565d e5bc 3330 373d
000000d0: 99e3 cdbd e25e babd 97f9 3abd 5e10 803d
000000e0: 3f4d fb3a 82d2 f3bd 828a 78bd 1dbd 683d
000000f0: eb08 2abd 0e72 e83d 6acb 27bd 60e9 a63b
00000100: e960 20bd 1c71 a33c 96cc a6bc 9e7c 1b3d
00000110: a79e 77bd 030b aabc 2bc6 ecbb 8d5a 95bd
00000120: 7ba8 d4bd d8b5 e7bd e9be 82bd f452 783d
00000130: 772d dbbd 5acc 50bd 7250 aabd 5dbf 03be
00000140: 8ab1 afbd 2b08 883d 9bcc bebd fddb 83bd
00000150: 6a37 fcbc 8d26 293d d15a 753d 26d0 643d
00000160: 60f5 f83d 8982 bcbd c1a7 a43d 6825 d0bc
00000170: 9853 b3bc e9c5 d53c 9802 6ebc 9fb9 d53d
00000180: 06bf 6e3d 14ec 0dbd 7010 cbbd db30 943d
00000190: 5050 0bbd e951 33bd 035a 493c b1c3 72bb
000001a0: 55d7 533d 50e1 f23c a37c 003e 667a 463d
000001b0: 8e5a 1abd 6313 bd3c eadc e4bd f914 063d
000001c0: 36bf c93d f2d8 67bc eda8 7cbd 1a64 db3b
000001d0: 1ccf 483d d9a1 9a3d 3618 86bd fa4e 533c
000001e0: 2618 5bbd 1533 aabc d1de 183c 3f80 f83c
000001f0: 3cf3 af3d 1bb7 a6bd 8f19 373d 8ddc bdbd
00000200: e802 42bd 2534 583d bd14 91bd 9618 98bd
00000210: da28 933b 545f 76bc ca5b cfbd 4f84 c7bd
00000220: 3b2a 063e 277a 8fbd 7902 f7bd 9912 b43d
00000230: e138 5ebd 8adc a4bd 0425 2e3c 79a5 7b3d
00000240: 8a56 ebbd 6a67 a1bd c664 113d e1e6 803d
00000250: e098 733d 547f fe3d 5ae7 b2bc 19ef 073e
00000260: 3ad4 e33d 62b4 3abd 38d3 01be 44ea 803b
00000270: 61a6 a0bd 9427 acbd 9714 f4bb 094e dcbd
00000280: 703c dfbc cf5b 9d3c 2023 3b3c dec0 803d
00000290: add8 bebc e75e 723d fff7 333d 0dc0 5f3d
000002a0: f2f3 edbc b24e c93d d23d 3f3d ffc5 d03c
000002b0: aea8 82bd 819d 3b3d 91c4 dbbd f512 4ebd
000002c0: b11c ab3c 4369 ecbd b2dd a9bd 4562 103d
000002d0: 9302 0b3c cd12 bb3d a08d de3d 2e43 e2bc
000002e0: 1f0d 303d 8292 023d 918f a53d fd2b 9cbd
000002f0: 7e73 c83d 537d ad3c c49b 44bd 4913 bd3d
00000300: 5974 b53d 2a80 ed3c dd8d a4bd 576c 48bd
00000310: f715 8dbd 0fc4 36bc deba 993d 6a04 5d3d
00000320: 169e 2c3d 00f9 8c3d fad0 9c3d c5b4 23bd
00000330: fa27 633c d739 ae3d 2e23 423d ad99 3d3d
00000340: ab2e f33d 3401 513d 96b1 52bd 5048 33bd
00000350: 2113 a3bd 5a0f 40bd 4075 0fbd 46f1 d6bc
00000360: 03b7 a13b 7c78 e93b 479e 01bd d672 cc3d
00000370: 4a16 be3d 6c09 003d 0e44 023d c9cc 49bd
00000380: a749 83bd 58e3 ca3d bf34 903c 0c3d a9bd
00000390: c949 003d 6fbb 683d 3d0c 3a3d ee91 dbbd
000003a0: e31f 08be 77a3 a0bd ce3d 8fbd b32f 2d3c
000003b0: 5767 003e 60af b1bd bc28 173d 1c39 fd3c
000003c0: 7b12 4fbd c9a1 71bd e968 373c 0f01 22bb
000003d0: 4400 fbbd 684c 80bd 29f2 83bc 2a35 a83d
000003e0: 005b bb3d 7648 c6bb 829e c7bc 82ab a4bc
000003f0: 9212 99bd 505a 833c e07a 593d 55db 013d
0.014120919 0.02385777 -0.025005348 0.033903494 -0.076569006 0.024066752 -0.033360664 0.047249105
0.034748662 0.0069319815 0.08295473 -0.028774792 -0.10369329 0.054382827 -0.035043295 -0.057612136
-0.04737971 0.04213548 0.04428952 0.019396547 0.07010063 0.0061549176 0.06744541 -0.07796664
0.04409894 0.07689452 -0.009256622 0.07987838 0.0012300421 0.025174033 0.1103906 0.020034416
0.11205955 0.011450537 -0.015616773 0.00040186627 -0.101826474 -0.011673133 -0.09716064 -0.048257783
0.043134637 -0.10843197 -0.01354341 0.097205006 -0.015934672 -0.048170503 0.041377626 0.12036421
-0.09299407 0.100411825 -0.027998608 0.0447237 -0.100531764 -0.09100129 -0.045648184 0.06253122
0.0019172801 -0.119053856 -0.060678966 0.056820977 -0.04151241 0.11349879 -0.040965475 0.0050937384
-0.03915492 0.019951396 -0.020361226 0.03796064 -0.060454037 -0.020757204 -0.007225772 -0.07292662
-0.103836976 -0.11313981 -0.063840695 0.060625985 -0.10702031 -0.050976135 -0.08316125 -0.12865968
-0.08578785 0.06642183 -0.09316369 -0.06438444 -0.030788142 0.04129653 0.059901062 0.05586257
0.121561766 -0.09204585 0.08039809 -0.025408462 -0.021890447 0.026095347 -0.014526986 0.10435795
0.058287643 -0.03464897 -0.099152446 0.07235881 -0.03401214 -0.043779287 0.012289527 -0.003704291
0.05171903 0.029648453 0.12547545 0.048456572 -0.037684016 0.023080533 -0.111749485 0.032734845
0.09850924 -0.014150845 -0.061684538 0.0066952826 0.04902564 0.07550401 -0.065475866 0.012897247
-0.053489827 -0.020776311 0.009330467 0.03033459 0.08591315 -0.08140393 0.04470211 -0.09270582
-0.047366053 0.052784104 -0.07084034 -0.074265644 0.004490954 -0.015037376 -0.10124929 -0.09742033
0.13102047 -0.070057206 -0.120610185 0.0879261 -0.054253463 -0.08049877 0.010628942 0.061437104
-0.114911154 -0.07881053 0.035496496 0.06294037 0.059471965 0.1242663 -0.021838833 0.13274802
0.111244634 -0.045582183 -0.1267823 0.0039341766 -0.07844234 -0.084059864 -0.0074487436 -0.107570715
-0.027250499 0.019208817 0.011421949 0.062867865 -0.023296678 0.059172537 0.04393768 0.054626513
-0.029046986 0.09829463 0.046689816 0.025485037 -0.06379829 0.045804504 -0.107308514 -0.050311048
0.020887705 -0.115435146 -0.08294238 0.035249967 0.0084845 0.09134445 0.108668566 -0.027619924
0.042981263 0.031878002 0.08084024 -0.076255776 0.097876534 0.021177923 -0.048000112 0.09232194
0.08860082 0.028991777 -0.08034871 -0.048931446 -0.06888955 -0.011155142 0.07506345 0.053959288
0.04214295 0.068834305 0.076570466 -0.039967317 0.013864512 0.08507126 0.04739683 0.046289135
0.118741356 0.051026538 -0.05143889 -0.043770134 -0.07962633 -0.04688964 -0.035023928 -0.026238095
0.004935147 0.0071249586 -0.031645086 0.09982841 0.09281595 0.031258985 0.031803183 -0.049267564
-0.064105324 0.09906644 0.017603276 -0.08263597 0.031320367 0.056819376 0.045421828 -0.10721193
-0.13293414 -0.078436784 -0.0699421 0.010570454 0.12539421 -0.08676028 0.03690408 0.030911021
-0.050554734 -0.05899218 0.011194446 -0.002471987 -0.1225591 -0.06264573 -0.016106682 0.08213265
0.09148216 -0.0060511185 -0.024367575 -0.020101313 -0.07474245 0.016034275 0.0530957 0.031703312

fc.bias f4 [2]
00000000: b46d 19bd 24bc ad3d
-0.037458137 0.084831506
