OpenPifPaf/models/push-up_lstm.pth (torch, 339135 bytes, 6 tensors)

lstm.weight_ih_l0 f4 [512, 34]
0	0xbd2987e5	-0.041389365
1	0x3be9cefb	0.0071352697
2	0xbc9a60f5	-0.01884506
3	0x3dbf8b3e	0.0935273
4	0xbd94b139	-0.07260365
5	0xbd9c6cf6	-0.0763797
6	0x3cf166af	0.029467909
7	0x3db5a59e	0.088694796
8	0x3db1e75f	0.08686709
9	0xbd8e0083	-0.06933691
10	0x3d9d2a23	0.076740526
11	0xbd7b9b14	-0.06142719
12	0xbced3fca	-0.028961081
13	0x3d403149	0.046922002
14	0x3d85d51c	0.06534788
15	0xbbf4c386	-0.0074695973
16	0x3c616f98	0.013759516
17	0xbdae0d19	-0.08498592
18	0xbd89afd0	-0.06722987
19	0xbd6bd2e9	-0.057574186
20	0xbd767d62	-0.060178168
21	0xbc8fe10f	-0.017563371
22	0xbd79d6d3	-0.060995888
23	0x3d4a188a	0.04933981
24	0xbd4ff3eb	-0.050769728
25	0x3d94a0c4	0.07257226
26	0xbd140da1	-0.03614581
27	0x3d4b5a3e	0.04964661
28	0x3daa6487	0.08319955
29	0xbd9629da	-0.07332201
30	0x3cf06084	0.029342897
31	0x3d7ed565	0.062215228
32	0xbd065769	-0.032798205
33	0x3c1c4495	0.009537836
34	0x3c344d82	0.011004807
35	0xbd701fa1	-0.058623914
36	0x3da18e23	0.078884386
37	0xbb27660c	-0.0025543002
38	0xbc8cd912	-0.017193351
39	0xbda4d44c	-0.08048305
40	0xbd908034	-0.07055703
41	0x3c129517	0.008946679
42	0xbdc11d1c	-0.0942938
43	0x3d71d3a1	0.059039716
44	0xbc866e87	-0.016410125
45	0x3db1a9ad	0.08674941
46	0x3ce91a1b	0.02845483
47	0x3cc1d28f	0.023659972
48	0x3c2dd1dc	0.010609116
49	0xbcb27018	-0.021781966
50	0x3dad3bdb	0.08458682
51	0x3d0a7d7a	0.03381107
52	0xbd90449c	-0.07044336
53	0xbd374d23	-0.044751298
54	0xbc362bd2	-0.011118846
55	0xbda27b68	-0.07933694
56	0x3cfefd4c	0.03112664
57	0x3d443936	0.047906123
58	0xbcdd13b5	-0.026986936
59	0xbd55843f	-0.052128073
60	0xbd8c9458	-0.06864232
61	0xbcb84e9c	-0.022498421
62	0xbd8fa3c8	-0.07013661
63	0x3d6c6756	0.057715736
64	0xbd84dc77	-0.06487363
65	0x3da83ac0	0.08214331
66	0xbd9d84b7	-0.07691329
67	0x3bfc21ed	0.007694474
68	0xbd5fcfc6	-0.054641508
69	0x38e723b3	0.00011021588
70	0xbda20e4a	-0.07912882
71	0x3d6d2282	0.057894237
72	0x3d4f4976	0.050607167
73	0xbd4caf21	-0.049971703
74	0xbd238717	-0.039923754
75	0xbd2d203b	-0.042267065
76	0x3b508aa4	0.0031820918
77	0x3d032aad	0.03202312
78	0x3bd29a96	0.0064271195
79	0x3c1014cf	0.008794024
80	0x3d179823	0.037010323
81	0x3c211007	0.009830481
82	0xbc20505f	-0.009784787
83	0x3d691b93	0.056911062
84	0xbd7ceb50	-0.06174785
85	0x3d4c18f5	0.04982849
86	0x3d5bb542	0.053639658
87	0xbd01718d	-0.03160243
88	0xbbdfae83	-0.0068262233
89	0xbd3a0f34	-0.045424655
90	0x3b0a0ac0	0.0021063536
91	0xbd9c39ca	-0.0762821
92	0x3d904287	0.07043939
93	0x3c81655f	0.015795408
94	0x3d24f472	0.040272184
95	0x3d843f2c	0.064573616
96	0xbd495fa1	-0.049163464
97	0x3db0867a	0.08619399
98	0x3d86dcbd	0.06585071
99	0x3d85a944	0.065264255
100	0xbda3a3cd	-0.07990227
101	0xbd37d93a	-0.044884898
102	0xbd3a6134	-0.045502856
103	0xbd917b43	-0.071035884
104	0x3d133bfa	0.03594587
105	0xbc25e619	-0.01012566
106	0x3db67262	0.089085355
107	0x3dc52706	0.09626584
108	0xbc52e338	-0.012871556
109	0xbcf31ca8	-0.02967675
110	0xbb4b61d2	-0.0031033647
111	0x3d5cce12	0.05390746
112	0x3d82d05f	0.063874
113	0x3cc182ac	0.02362188
114	0xbca71eea	-0.020400483
115	0xbc5b7210	-0.013393894
116	0x3da8b4d5	0.08237616
117	0xb9b1351b	-0.00033799637
118	0xbd15c7e6	-0.03656759
119	0xbd1bec1b	-0.038066965
120	0xbd5b0985	-0.053475875
121	0xbd0f8a88	-0.035044223
122	0xbda38c04	-0.0798569
123	0x3d3d5f19	0.04623327
124	0x3d730f60	0.059340835
125	0xbc9d3d92	-0.019194398
126	0x3d15b0e2	0.03654564
127	0x3dba5fee	0.091003284
128	0x3c7ec408	0.015549667
129	0x3c104695	0.008805891
130	0x3d43ca4e	0.047800355
131	0x3d10de92	0.03536851
132	0x3c6ae248	0.014336176
133	0xbc8a82c4	-0.016908057
134	0xbd32e43c	-0.043674693
135	0xbd7a912e	-0.06117361
136	0xbd97f17b	-0.074191056
137	0x3d912c8a	0.07088573
138	0xbccbe967	-0.024891568
139	0x3d5c560e	0.053793006
140	0xbc4aa944	-0.012369458
141	0xbd21eccd	-0.03953247
142	0x3c106045	0.008812015
143	0xbd9d0627	-0.07667189
144	0xbda22fc6	-0.07919268
145	0x3d8c419a	0.0684845
146	0xbc83361a	-0.016017009
147	0x3d913558	0.07090253
148	0xbcebe11c	-0.028793864
149	0xbbd65138	-0.0065404437
150	0xbc4610c2	-0.012088956
151	0xbd9565c8	-0.07294804
152	0xbc791acd	-0.015204144
153	0x3d2e7a7c	0.04259728
154	0xbd893593	-0.066996716
155	0xbc69e4e8	-0.014275767
156	0x3cec190f	0.028820543
157	0xbd6ba37e	-0.057528965
158	0x3be3fad0	0.0069573894
159	0x3ca7798a	0.020443697
160	0x3da3cc4f	0.07997953
161	0xbbbf9e8d	-0.005847758
162	0x3db0d2a5	0.08633927
163	0x3d6b7bd2	0.05749113
164	0xbcffc8f6	-0.031223755
165	0x3d39ed3e	0.045392267
166	0xbd0c5703	-0.03426267
167	0xbd9fe81c	-0.07807943
168	0x3daf643d	0.08564041
169	0x39caf5d9	0.00038711613
170	0xbd2e3d73	-0.04253907
171	0x3d07cada	0.03315244
172	0xbbc76aa4	-0.0060857106
173	0x3dc21e96	0.0947849
174	0xbcb7dff1	-0.02244565
175	0x3d739288	0.059465915
176	0x3d50b60b	0.05095486
177	0x3d2eb830	0.042656124
178	0xbd831006	-0.063995406
179	0xbd3b2fdf	-0.04569995
180	0x3d1cd905	0.038292903
181	0xbd2e843f	-0.04260659
182	0x3d9d34fa	0.0767612
183	0xbdb36c91	-0.08760942
184	0xbd8f3d33	-0.06994095
185	0xbd38d6a9	-0.04512659
186	0x3cd77d31	0.026304813
187	0xbd821a0b	-0.063526236
188	0x3d0b04c2	0.033940084
189	0x3ce94856	0.028476875
190	0xbd83131d	-0.0640013
191	0x3da81036	0.08206217
192	0xbdac3ea6	-0.08410387
193	0x3daeee84	0.08541587
194	0x3d4ee0c9	0.05050734
195	0x3da8c809	0.08241279
196	0xbd6e69c1	-0.058206324
197	0xbc9e61f4	-0.019333817
198	0x3db74ca1	0.08950163
199	0xbd8c8ba3	-0.06862571
200	0x3ca5c258	0.020234272
201	0xbb388ba3	-0.0028159402
202	0xbc20bf98	-0.0098113045
203	0xbd7161c7	-0.05893114
204	0xbd7ab0f1	-0.0612039
205	0x3d826486	0.063668296
206	0xbd8b36dd	-0.06797574
207	0x3d4401a8	0.047853142
208	0xbdd4714d	-0.10373173
209	0xbcb7f814	-0.02245716
210	0x3d584b05	0.05280592
211	0xbd0d33ff	-0.034473415
212	0x3d2bdb32	0.041957088
213	0xbc6856bf	-0.014180838
214	0xbcbbd6a4	-0.022929497
215	0x3b093b1f	0.002093978
216	0xbd1cdd28	-0.03829685
217	0xbcfebd3b	-0.031096091
218	0x3cf1e480	0.029527903
219	0xbd58f515	-0.052968103
220	0xbcdefe14	-0.027220763
221	0xbd6630ad	-0.056198765
222	0xbd949ed7	-0.07256859
223	0xbc3d8699	-0.011567735
224	0x3b2c0a60	0.0026251301
225	0xbcc4eb21	-0.0240379
226	0xbd606a73	-0.054789018
227	0xbca2346b	-0.019800385
228	0x3d22538e	0.039630465
229	0x3ce0036d	0.027345384
230	0x39a58c00	0.0003157556
231	0xbdccb8b0	-0.09996164
232	0xbce2e2e6	-0.027696084
233	0xbdb2c472	-0.08728875
234	0x3cf305bc	0.02966582
235	0xbdb85947	-0.09001403
236	0xbd8bf859	-0.06834478
237	0xbda7a055	-0.08184878
238	0x3d8f5ecb	0.07000502
239	0xbd2cc4fa	-0.04218004
240	0xbd8c91c3	-0.06863739
241	0x3da3d185	0.07998947
242	0x3d9e8d9d	0.07741854
243	0x3c205b22	0.009787353
244	0x3d3c09b9	0.04590771
245	0xbd49a0a6	-0.049225472
246	0x3d2e45aa	0.042546906
247	0x3d8270ba	0.06369157
248	0x3d340b32	0.04395599
249	0xbd054c31	-0.032543365
250	0x3d51577c	0.051108822
251	0x3c7881be	0.015167652
252	0x3ca216a4	0.019786187
253	0xbd8854de	-0.06656812
254	0xbd000dfe	-0.031263344
255	0xbca064f8	-0.019579396

lstm.weight_hh_l0 f4 [512, 128]
0	0xbdd0f0ac	-0.102021545
1	0x3d980396	0.07422559
2	0xbdc93d7b	-0.098261796
3	0xbca8daca	-0.02061214
4	0xbd187e67	-0.03722992
5	0x3d95c0aa	0.073121384
6	0x3bc8284a	0.0061083185
7	0xbd9e466b	-0.07728275
8	0xbce3df9c	-0.027816586
9	0x3c4210ca	0.011844823
10	0x3d1e2121	0.038605813
11	0xbcffcee8	-0.03122659
12	0x3d4baf95	0.049727995
13	0x3d012622	0.031530507
14	0x3d08fe86	0.033445857
15	0xbd0b1ea9	-0.033964787
16	0x3d2bfa7e	0.041986935
17	0xbbd1024e	-0.0063784486
18	0x3c82f63a	0.01598655
19	0xbce2e547	-0.027697219
20	0x3af918b0	0.001900455
21	0xbdd9a688	-0.106274664
22	0xbd86afb1	-0.06576479
23	0xbcd73ed4	-0.026275076
24	0x3d6af05b	0.057358127
25	0xbc4ba17a	-0.012428636
26	0xbc7875ed	-0.015164834
27	0x3d30d28a	0.043169536
28	0xbd032e78	-0.032026738
29	0xbcd8a3d1	-0.026445301
30	0xbcaf9be9	-0.021436648
31	0x3ddf0779	0.10890097
32	0x3dbba378	0.091620386
33	0x3993725a	0.00028123223
34	0xbda28f17	-0.079374485
35	0xbbc87701	-0.006117702
36	0x3cd1f3d3	0.02562896
37	0xbbdff719	-0.0068348763
38	0xbcda29f8	-0.02663134
39	0xbd784f2a	-0.06062237
40	0xbcb0107e	-0.02149224
41	0xbdc4ea90	-0.09615052
42	0xbdb9d1b4	-0.09073201
43	0x3be21251	0.006899156
44	0x3d8adf8d	0.0678092
45	0xbde9a65d	-0.114086844
46	0xbcab358a	-0.020899553
47	0xbc4800ae	-0.012207193
48	0xbdc1b36b	-0.094580494
49	0xbc5860a5	-0.013206636
50	0xbc785ffd	-0.015159604
51	0xbd11bd70	-0.035581052
52	0xbd22c33b	-0.039736968
53	0xbd7fd054	-0.062454537
54	0xbd549d45	-0.051907796
55	0x3cd29b9a	0.025708962
56	0x3d55488c	0.05207114
57	0x3cd60ee5	0.02613015
58	0x3d7116ef	0.05885976
59	0xbc4071a3	-0.011745843
60	0x3c6d1bcc	0.014471959
61	0xbd225aab	-0.03963725
62	0xbcdbf80d	-0.026851678
63	0xbd4df662	-0.050283797
64	0x3baefa78	0.005339917
65	0x3c87379b	0.016506007
66	0xbcadb107	-0.021202577
67	0xbd085df9	-0.033292744
68	0xbcd5958b	-0.026072284
69	0xbd0b81d0	-0.034059346
70	0x3ddb59fb	0.10710522
71	0x3db74dee	0.08950411
72	0x3d3c6fd7	0.046005096
73	0xbde0b857	-0.1097266
74	0xbd6e7201	-0.05821419
75	0x3d6e5f3b	0.058196288
76	0xbd60687d	-0.054787148
77	0xbd88bff4	-0.06677237
78	0xbdf48225	-0.119388856
79	0xbc626146	-0.013817137
80	0x3db30a2d	0.08742175
81	0x3caccb63	0.021093076
82	0x3cabd6fd	0.020976538
83	0x3c82a682	0.015948538
84	0x3d805057	0.062653236
85	0x3dbbd9b6	0.091723844
86	0xbd5c05ab	-0.053716343
87	0x3d6cd2ea	0.05781833
88	0x3d9fc95a	0.07802077
89	0xbda7f4fe	-0.082010254
90	0x3cdbb3c7	0.026819123
91	0x3d3f1cf9	0.04665849
92	0xbd673edd	-0.056456435
93	0xbdae7632	-0.08518638
94	0x3d7ee0b7	0.062226024
95	0xbc13b871	-0.009016142
96	0xbc30e2ec	-0.01079629
97	0xbcd8780a	-0.026424427
98	0xbde816cb	-0.113324724
99	0xbdb83f2a	-0.089964226
100	0x3d77b506	0.06047537
101	0xbd6017f5	-0.054710347
102	0xbd5db648	-0.054128915
103	0x3da6f127	0.08151465
104	0x3d66a3dd	0.056308616
105	0x3d5793ec	0.052631304
106	0xbc9e6683	-0.01933599
107	0x3c99a03b	0.018753162
108	0x3d619b71	0.05507988
109	0xbd0c6f24	-0.03428568
110	0x3d248396	0.040164553
111	0xbb16023a	-0.002288951
112	0xbc1f32dc	-0.009716716
113	0x3b9be31e	0.004757299
114	0xbcd20b94	-0.025640287
115	0xbc3a1676	-0.011357894
116	0xbcbc2dde	-0.02297109
117	0x3dc6f4ef	0.09714686
118	0x3daabfd8	0.083373725
119	0x3dd7784b	0.10520991
120	0x3d96064a	0.07325418
121	0xbc9b3c35	-0.018949607
122	0xbc842ffd	-0.016136164
123	0x3da9f8c4	0.082994014
124	0xbdcc5e9a	-0.09978981
125	0x3c8098fd	0.01569795
126	0x3c5693a1	0.013096721
127	0xbbea8360	-0.0071567744
128	0xbd48d16a	-0.049027838
129	0xbb9ba556	-0.004749934
130	0xbd203310	-0.039111197
131	0x3d89285a	0.066971496
132	0x3db9324e	0.09042798
133	0xbda98a08	-0.082782805
134	0xbd28df32	-0.04122848
135	0x3bc62eb6	0.006048049
136	0x3d270c68	0.040783316
137	0xbd1f13d0	-0.038837254
138	0xbd299bdc	-0.041408405
139	0xbb7b2457	-0.003832122
140	0x3cf30140	0.029663682
141	0xbce74685	-0.028231869
142	0xbcd1b2f8	-0.025598034
143	0xb9c21d5f	-0.00037024447
144	0x3d893fea	0.06701644
145	0x3d1ca04b	0.038238805
146	0xbcf0e51a	-0.02940612
147	0xbd2688a5	-0.040657658
148	0x3d8bc2d0	0.06824267
149	0xbdad8060	-0.08471751
150	0xbddef96e	-0.10887419
151	0x3cabe601	0.020983698
152	0x3b350c70	0.0027625822
153	0x3db768ce	0.08955537
154	0x3be4b9f6	0.006980176
155	0x3d5d9f3c	0.054106936
156	0x3d8db912	0.06920065
157	0x3a49f1ff	0.0007703602
158	0x3cc7920e	0.024361636
159	0x3df32827	0.11872893
160	0x3da32634	0.07966271
161	0x3d4c6706	0.04990294
162	0xbda62a16	-0.08113496
163	0x3d36d31e	0.04463493
164	0xbde56111	-0.112001546
165	0xbc864205	-0.016388902
166	0x3cc881ce	0.024475958
167	0x3d6c6be3	0.057720076
168	0xbc7a964f	-0.015294625
169	0x3cb4839b	0.02203541
170	0xbdc62d48	-0.096766055
171	0x3d6ec942	0.058297403
172	0x3cec1fe3	0.028823799
173	0xbdb442dd	-0.08801816
174	0x3dee02f2	0.116216555
175	0xbcbb9180	-0.022896528
176	0x3d21d2a0	0.03950751
177	0xbaaf5208	-0.0013375888
178	0xbda1f27f	-0.079075806
179	0xbca56af4	-0.0201926
180	0x3d85643a	0.06513257
181	0x3d6da655	0.058019955
182	0x3c78b329	0.015179434
183	0x3daea892	0.08528246
184	0x3dd084e4	0.10181597
185	0xbd31e0de	-0.04342734
186	0xbd908e03	-0.070583366
187	0x3d29d772	0.04146523
188	0x3d59d17b	0.05317829
189	0xbd48106b	-0.048843782
190	0x3d7c83bc	0.06164907
191	0xbc1f2140	-0.009712517
192	0x3d78a68d	0.06070571
193	0xbd4c67ed	-0.0499038
194	0x3d10370b	0.035208743
195	0x3c39fc26	0.011351621
196	0xbd1caef5	-0.03825279
197	0x3d52b0e8	0.051438242
198	0xbcc57d32	-0.02410755
199	0x3dd66408	0.10468298
200	0xbd4d3a08	-0.05010417
201	0xbda82f9e	-0.08212207
202	0x3d8ab8fb	0.067735635
203	0xbc3d3cac	-0.01155011
204	0xbdacd184	-0.084383994
205	0x3da6ab71	0.081381686
206	0xbd4026a3	-0.046911847
207	0xbdb9b375	-0.09067432
208	0xbd6799c7	-0.056543138
209	0x3c8a72c2	0.016900424
210	0xbcf3497a	-0.029698122
211	0xbdd082c3	-0.10181191
212	0xbd5cd7f5	-0.05391689
213	0x3dd74477	0.105111055
214	0xbd677c02	-0.056514747
215	0x3d9ffb0e	0.07811557
216	0xbd11fd34	-0.035641864
217	0xbdd13872	-0.10215844
218	0xbc963e03	-0.018340116
219	0x3dafc02e	0.08581577
220	0xbd40429e	-0.04693853
221	0xbdc8e24a	-0.09808786
222	0x3b0a30b3	0.0021086156
223	0xbd5b1035	-0.053482253
224	0x3bbf508f	0.0058384608
225	0xbcb41568	-0.021982864
226	0xbc45c573	-0.012071001
227	0x3d83bc48	0.06432396
228	0x3dd92652	0.10603012
229	0xbdec5243	-0.11539128
230	0x3d0121d1	0.03152639
231	0xbd85fe7d	-0.065426804
232	0xbd53b65e	-0.05168759
233	0x3de1105b	0.10989448
234	0x3da8c1db	0.082401
235	0x3d079643	0.033102285
236	0x3c8f0719	0.01745944
237	0x3d4fc129	0.05072132
238	0x3c8c8fd4	0.017158426
239	0xbd3c1d90	-0.04592663
240	0x3cff0a5d	0.031132871
241	0xbd270173	-0.040772866
242	0xbd1bcb2d	-0.03803556
243	0xbdbedb60	-0.09319186
244	0xbd474bcc	-0.04865627
245	0xbcf52767	-0.029926015
246	0xbca12d63	-0.019674962
247	0x3dedb13c	0.116060704
248	0xbdbf49b1	-0.093402274
249	0xbd014a72	-0.031565137
250	0x3cb110f9	0.021614539
251	0x3d988525	0.0744727
252	0xbda3cca7	-0.07998019
253	0x3dc0041d	0.093757845
254	0xbd9a366e	-0.07529913
255	0x3d9b9ac1	0.07597876

lstm.bias_ih_l0 f4 [512]
0	0xbd064288	-0.032778293
1	0x3c8d9556	0.017283123
2	0x3d5bc97c	0.053658947
3	0x3d1b719b	0.03795014
4	0x3d55c1c7	0.052186754
5	0xbd0992a8	-0.033587128
6	0xbd7b8017	-0.061401453
7	0xbd17a34d	-0.03702097
8	0x3dec47e3	0.11537149
9	0x3d031e71	0.032011453
10	0x3c16aec8	0.009196945
11	0x3d7bbf28	0.061461598
12	0x3a173f94	0.0005769667
13	0x3d4a386c	0.049370214
14	0xbdaf21ed	-0.08551393
15	0xbdd097a1	-0.10185171
16	0x3daeef35	0.08541719
17	0x3debb96e	0.11509977
18	0xbd13bd04	-0.03606893
19	0x3d8bb35c	0.068213195
20	0xbd5b1ea7	-0.05349603
21	0xbc9edf99	-0.019393729
22	0xbd9be301	-0.07611657
23	0xbd494a9a	-0.04914341
24	0x3b93bbaa	0.0045084553
25	0x3dbe3725	0.09287862
26	0x3df41814	0.11918655
27	0x3d68935b	0.056781154
28	0xbcb3c933	-0.021946525
29	0x3bb5c4fb	0.0055471635
30	0x3d0e0e02	0.034681328
31	0xbd367d3b	-0.044553023
32	0x3d71c603	0.05902673
33	0xbb733d0e	-0.003711525
34	0xbcfda672	-0.030963156
35	0x3df7d9bf	0.12102079
36	0x3d4a00dc	0.049317226
37	0x3d9bed2f	0.076135986
38	0x3d935ce5	0.071954526
39	0xbd3f93d0	-0.046771824
40	0x3d662867	0.056190874
41	0x3d0737c8	0.03301218
42	0x3dd6221b	0.10455724
43	0x3dcb62a2	0.09930922
44	0x3d9b2113	0.07574668
45	0x3da9ebb0	0.08296907
46	0x3d8cce06	0.06875233
47	0xba3c0dbc	-0.00071736774
48	0x3dcabe16	0.09899537
49	0x3d4bf6cd	0.049795914
50	0x3da1d33d	0.07901619
51	0x3c29a9c2	0.010355415
52	0xbd964b20	-0.07338548
53	0xbc59a525	-0.013284002
54	0x3d12fdf7	0.03588673
55	0x3d050d22	0.032483228
56	0x3b555881	0.0032553973
57	0xbcca6eb4	-0.02471099
58	0xbb0f47d3	-0.002186288
59	0xbd698664	-0.05701293
60	0x3b46b9ee	0.0030323225
61	0x3c4eeb46	0.012629336
62	0xbcb3cfef	-0.021949736
63	0xbd48cdd7	-0.04902443
64	0xbb84beb2	-0.004051053
65	0x3d3847bb	0.044990283
66	0xbd92ea7e	-0.07173632
67	0x3d314266	0.043276213
68	0x3c921a1c	0.017834716
69	0x3cfa9f23	0.03059346
70	0x3d20324e	0.039110474
71	0x3de8e9ff	0.11372756
72	0x3cab212a	0.020889837
73	0x3c0af75f	0.008481829
74	0xbd42e574	-0.047582105
75	0x3c39aa61	0.011332125
76	0xbd1f23cc	-0.038852498
77	0xbd304721	-0.043036584
78	0xbd49b6f4	-0.049246743
79	0x3dd2e2f0	0.10297191
80	0x3da436f4	0.08018294
81	0x3d891784	0.066939384
82	0xbbb22a56	-0.0054371757
83	0xbce6c91a	-0.028172065
84	0x3d66bf18	0.056334585
85	0xbd55396b	-0.05205671
86	0x3dd87005	0.10568241
87	0x3d61fc38	0.055172175
88	0x3befd58e	0.007319159
89	0x3d7dddb2	0.061979003
90	0x3d3adf1c	0.04562293
91	0xbd5fa712	-0.05460269
92	0xbd6ac52f	-0.057316955
93	0x3c6c38c3	0.01441783
94	0x3c824d84	0.015906103
95	0x3db5eb31	0.0888275
96	0xbd3ef6b3	-0.04662199
97	0x3ca7724e	0.020440247
98	0x3dcf2273	0.101139925
99	0xb976393b	-0.00023481708
100	0x3c598320	0.013275892
101	0x3c285910	0.01027514
102	0x3d466ef6	0.048445664
103	0x3d914cfa	0.0709476
104	0x3d813e11	0.06310666
105	0x3db736d9	0.08946008
106	0xbd17d169	-0.037064943
107	0xbd46b019	-0.048507784
108	0xbdcd48c3	-0.10023644
109	0x3d806362	0.06268956
110	0x3d955720	0.072920084
111	0xba81173c	-0.0009848843
112	0x3de3860d	0.111095525
113	0x3d329b60	0.04360521
114	0x3dd5e319	0.10443706
115	0x3d10ad56	0.035321556
116	0x3dc25799	0.09489364
117	0x3dd1b430	0.10239446
118	0xbda5b9ba	-0.08092065
119	0x3cee15c1	0.029063107
120	0x3c990942	0.018681172
121	0x3dbbf497	0.09177511
122	0x3ce37caa	0.027769405
123	0x3dbbe6b1	0.0917486
124	0x3d8d38aa	0.068955734
125	0x3d89e8bf	0.06733846
126	0xbdaabc95	-0.083367504
127	0xbd5ff416	-0.054676138
128	0xbce5a59c	-0.02803307
129	0x3dde45cb	0.10853156
130	0x3d73750b	0.059437793
131	0x3d6415ca	0.055684842
132	0x3d97909e	0.074006304
133	0xbcfc81b1	-0.03082356
134	0xbcc3c8a0	-0.023899376
135	0xbc00ec3f	-0.007868825
136	0x3c392625	0.011300598
137	0xbd636889	-0.055519614
138	0x3d0b744e	0.034046464
139	0xbd283cd3	-0.04107363
140	0x3c9d400c	0.019195579
141	0x3d1667b2	0.036719985
142	0xbd7900a6	-0.060791634
143	0x3ce34902	0.027744774
144	0x3dbcd496	0.09220235
145	0xbbab4a2e	-0.005227349
146	0x3db944e2	0.090463415
147	0x3d05df21	0.032683495
148	0xbdaebef7	-0.085325174
149	0xbbf4499e	-0.007455065
150	0x3d15680a	0.036476173
151	0x3d640ef9	0.05567834
152	0x3d1d2384	0.03836395
153	0x3db7d0ba	0.08975358
154	0xbcba60fd	-0.022751326
155	0xbcff51fa	-0.03116702
156	0x3d9f84b0	0.0778898
157	0xbcac21ba	-0.021012176
158	0x3dbcb047	0.0921331
159	0x3cf4df33	0.029891586
160	0x3cf4ab86	0.029866945
161	0xbd7ef733	-0.062247466
162	0xbc8830d8	-0.016624853
163	0x3d22503f	0.03962731
164	0xbd11c95d	-0.035592426
165	0x3d0dabc4	0.034587637
166	0x3dc4609c	0.09588739
167	0xbbe8407c	-0.0070877653
168	0x3d92bd53	0.07165017
169	0x3d6b5d5e	0.05746209
170	0x3d514cee	0.051098756
171	0x3d7f8a91	0.062388007
172	0xbb6e6a29	-0.0036379194
173	0x3da59c2f	0.0808643
174	0x3d75d5b7	0.060018267
175	0xbd080ac8	-0.033213407
176	0x3da10d6d	0.07863889
177	0x3d79de4c	0.061003014
178	0x3d979266	0.0740097
179	0xbda02529	-0.07819588
180	0xbd8a3508	-0.06748396
181	0x3d97057b	0.07374092
182	0x3c0127f3	0.00788306
183	0x3dc60362	0.09668614
184	0xbc7cdde3	-0.015433761
185	0x3d64421a	0.0557271
186	0x3da6660a	0.08124931
187	0xbd7b3231	-0.061327163
188	0x3bdc3a4a	0.006720816
189	0x3dc96d64	0.09835318
190	0xbbb5a654	-0.0055435095
191	0x3cebe57b	0.028795948
192	0x3d714676	0.058905087
193	0xbd2e38a4	-0.042534485
194	0xbbd92bd7	-0.0066275406
195	0x3d46b3c8	0.048511297
196	0xbcc28d68	-0.023749068
197	0xbd3d7213	-0.046251368
198	0xbc937754	-0.018001236
199	0xbc8d1a4c	-0.017224453
200	0x3dcb0151	0.099123605
201	0x3ca44e17	0.020056767
202	0x3d4b01f7	0.04956242
203	0x3de6cb6c	0.112692684
204	0x3cb6a539	0.022295581
205	0x3cc90a78	0.024541125
206	0xbb520be4	-0.0032050544
207	0xbd06ea40	-0.032938242
208	0xbc6abe1c	-0.014327552
209	0xbd7f38a4	-0.062309876
210	0xbb963102	-0.004583479
211	0xbc9b8ab3	-0.018987035
212	0xbbfc8073	-0.007705742
213	0xbced8800	-0.028995514
214	0xbd6f712d	-0.058457542
215	0x3d046ec4	0.032332197
216	0xbd4db282	-0.050219066
217	0x3c30747f	0.010769962
218	0xbca269f8	-0.01982592
219	0x3bab5cbf	0.005229562
220	0xbd94b96f	-0.07261931
221	0x3c634639	0.013871723
222	0xbbf47f8e	-0.0074614948
223	0xbd0db950	-0.034600556
224	0x3dbd77bc	0.09251353
225	0x3bacc55e	0.0052725514
226	0x3dc8779b	0.09788438
227	0xbd1c16cb	-0.038107675
228	0x3d15d18c	0.036576793
229	0x3d93ce53	0.072170876
230	0xbd8c6be1	-0.06856514
231	0x3dac770c	0.08421144
232	0x3b99cb89	0.0046934527
233	0xbd08b865	-0.033378977
234	0xbd279036	-0.040909015
235	0x3d7e52c0	0.062090635
236	0x3d52d522	0.05147279
237	0x3d9cf9dc	0.076648444
238	0x3cfd1987	0.030895961
239	0x3d48a177	0.04898211
240	0xbc9b43c7	-0.018953217
241	0x3dbb07a9	0.091323204
242	0x3dc09642	0.094036594
243	0xbd976ecf	-0.07394182
244	0x3cbefccb	0.0233139
245	0xbc0ac952	-0.00847085
246	0x3bd36ba7	0.006452042
247	0x3cf6ffd3	0.030151283
248	0x3c75f58e	0.015012158
249	0x3d87f679	0.06638808
250	0xbd9848d9	-0.074357696
251	0x3dc6609b	0.09686395
252	0x37f5612c	2.9251525e-05
253	0x3daf647a	0.08564086
254	0xbb4ae5b0	-0.0030959658
255	0xbd6eea64	-0.058329

lstm.bias_hh_l0 f4 [512]
0	0xbd1a1121	-0.03761399
1	0x3d5f0f6e	0.054458074
2	0xbc8d74e6	-0.017267656
3	0xbd68ca2b	-0.056833427
4	0x3d9e34f6	0.07724945
5	0xbce9a7e9	-0.028522449
6	0x3dc07706	0.09397702
7	0x3d5f2501	0.05447865
8	0xbc7239eb	-0.0147843165
9	0x3d83990a	0.06425674
10	0x3da94d71	0.08266724
11	0x3dc7b5ee	0.09751497
12	0xbdc2881b	-0.09498616
13	0xbc944f9b	-0.018104365
14	0xbdc07457	-0.0939719
15	0x3c9cc7e3	0.019138282
16	0xbd4c2cf0	-0.049847543
17	0x3df429ac	0.11922011
18	0xbd6faee5	-0.0585164
19	0x3ddbdea6	0.10735826
20	0x3acf5987	0.0015819528
21	0x3d90628e	0.07050048
22	0xbc5bd71d	-0.013417986
23	0xba9400b0	-0.0011291709
24	0x3d8bfb2e	0.06835018
25	0xbd40e519	-0.047093485
26	0x3c88ae2b	0.016684612
27	0xbd0919f4	-0.033472016
28	0x3c15f250	0.00915201
29	0x3ce89617	0.02839188
30	0x3dc94cd0	0.09829104
31	0x3d8dac6b	0.06917652
32	0xbd6d470b	-0.05792908
33	0xbd3d473a	-0.046210505
34	0x3da6a45d	0.081368186
35	0xbca17604	-0.019709595
36	0x3d5754cb	0.0525711
37	0x3da07828	0.07835418
38	0x3d2744d5	0.040837128
39	0x3ce82aff	0.028340815
40	0x3c863d64	0.016386695
41	0x3d476ec2	0.04868961
42	0x3df23ea6	0.118283555
43	0x3de38fb0	0.111113906
44	0x3d321141	0.043473486
45	0x3d28ab35	0.0411789
46	0x3cf4e4d1	0.029894264
47	0xbd4020d6	-0.046906315
48	0x3dea0824	0.11427334
49	0xbd0e59cb	-0.034753602
50	0x3dbfec1a	0.09371205
51	0x3d749944	0.059716478
52	0xbdbb2aca	-0.09139021
53	0x3be736a9	0.0070560765
54	0x3d56ceb1	0.05244321
55	0x3dc9645d	0.09833596
56	0x3d861667	0.06547242
57	0x3cab1fab	0.020889124
58	0xbd3715ef	-0.044698652
59	0xbd737fac	-0.05944793
60	0xbca4d44a	-0.020120759
61	0xbb787f62	-0.0037917723
62	0x3d6d3d07	0.05791953
63	0x3d59c8e0	0.053170085
64	0x3d83cc0c	0.06435403
65	0x3cb54e58	0.022132084
66	0x3d6af37b	0.057361107
67	0x3de19daa	0.110164
68	0x3cad168e	0.021128919
69	0x3d0ea6ac	0.03482692
70	0x3d3bbacb	0.045832437
71	0x3d85a568	0.06525689
72	0xbc7cc00e	-0.015426649
73	0x3d090353	0.033450436
74	0xbd509e1b	-0.05093203
75	0x3d285538	0.041096896
76	0xbd0914ac	-0.03346698
77	0x3da40d22	0.080103174
78	0x3d41bba8	0.047298104
79	0xbb8b1824	-0.004244821
80	0x3d1ff5a8	0.039052635
81	0xbbd74ac8	-0.006570194
82	0x3ca9129c	0.020638756
83	0x3dc8f14a	0.09811647
84	0x3d859235	0.065220274
85	0x3deaaf73	0.114592455
86	0x3dcf1bf7	0.10112756
87	0x3d413321	0.0471679
88	0xbdb07be9	-0.08617384
89	0x3d8a7676	0.06760876
90	0x3d9ad3b9	0.07559914
91	0x3dbb047b	0.09131714
92	0x3bc72b5a	0.006078166
93	0xbd15f6e9	-0.036612425
94	0x3c1fcb13	0.0097530065
95	0x3d91fd0c	0.07128343
96	0x3d489b9b	0.048976522
97	0xbd80e212	-0.062931195
98	0x3c9192cf	0.0177702
99	0xbbae6d05	-0.0053230547
100	0xbd07bd65	-0.033139605
101	0x3da89b52	0.0823275
102	0x3d83c0d6	0.06433265
103	0x3d6c69b2	0.057717986
104	0x3cf85b36	0.03031693
105	0x3d5cb52d	0.05388372
106	0xbcbf191a	-0.023327399
107	0x3cace03a	0.021103013
108	0x3d0a75e9	0.033803854
109	0x3d6ab291	0.0572992
110	0xbd569f3c	-0.05239795
111	0x3dd38210	0.10327542
112	0x3dede16c	0.116152614
113	0x3d4dcce1	0.050244216
114	0x3d84c19c	0.064822406
115	0xbd06c061	-0.03289831
116	0xbc977269	-0.018487172
117	0x3ccfd21a	0.025368739
118	0x3a2d645f	0.0006614383
119	0x3d07e616	0.03317841
120	0x3c7dfbbf	0.0155019155
121	0x3c70c706	0.014695888
122	0x3d5926eb	0.05301563
123	0x3d985fe7	0.07440167
124	0xbc94fffc	-0.01818847
125	0x3ca67267	0.020318223
126	0xbdaf4d4d	-0.08559666
127	0xbd4d52c9	-0.05012778
128	0xbca77804	-0.02044297
129	0x3dc62b29	0.09676201
130	0x39b97aa8	0.00035377336
131	0xb973f232	-0.0002326451
132	0x3db69dce	0.089168176
133	0xbcf3eca1	-0.02977592
134	0x3d9df4aa	0.077126816
135	0x3d9650c0	0.073396206
136	0xbcd05b02	-0.02543402
137	0xbd2f3233	-0.042772483
138	0xbd82e666	-0.06391601
139	0x3d1ba53f	0.037999388
140	0xbc14379a	-0.00904646
141	0x3dc24280	0.0948534
142	0xbd81a909	-0.06331069
143	0x3d8bc96d	0.06825528
144	0xbd308596	-0.043096147
145	0x3d996455	0.0748984
146	0x3d982645	0.07429174
147	0xbd43f917	-0.047844972
148	0x3c979597	0.018503947
149	0x3cc23c59	0.023710417
150	0xbdbba146	-0.0916162
151	0x3bc0060b	0.0058600954
152	0xbd9c140d	-0.07621012
153	0xbca92d9e	-0.020651635
154	0xbc087c5a	-0.008330429
155	0x3da2e73b	0.0795426
156	0xbd149dba	-0.036283232
157	0x3d8ee29e	0.069768175
158	0x3c21cb57	0.00987514
159	0x3d99bd73	0.07506838
160	0xbdbab453	-0.09116425
161	0xbb33ae32	-0.002741706
162	0x3c604cfa	0.013690228
163	0xbd6c4029	-0.057678375
164	0x3c005a62	0.007834049
165	0x3d972687	0.073803954
166	0xbd53634d	-0.051608372
167	0x3d94b5ca	0.07261236
168	0xbcd05238	-0.02542983
169	0x3d9bc646	0.07606177
170	0x3d6ec3ca	0.058292188
171	0xbd234cce	-0.03986817
172	0xbd4f5af9	-0.050623868
173	0x3d811db1	0.06304491
174	0x3c9853dd	0.018594677
175	0x3c6f0c97	0.014590404
176	0x3de54077	0.11193936
177	0xbd268c02	-0.040660866
178	0xbd684d9a	-0.05671463
179	0x3d55a5ff	0.05216026
180	0x3d32a6fd	0.043616284
181	0x3db04d84	0.08608535
182	0x3c651b07	0.013983495
183	0xbc9ac06d	-0.018890584
184	0xbc7068b7	-0.014673403
185	0xbd3ad68d	-0.045614768
186	0xbc182a49	-0.009287425
187	0xbd2b8418	-0.04187402
188	0x3dcbd066	0.09951858
189	0x3da1c21d	0.07898352
190	0x3d97028c	0.07373533
191	0xbcbaccbd	-0.022802705
192	0xbc4b4f66	-0.012409067
193	0xbabe0885	-0.0014498389
194	0xbdb3a016	-0.08770768
195	0x3a34c95d	0.00068964605
196	0x3c8507b4	0.016239025
197	0xbdb9d1dd	-0.09073231
198	0xbd3b555d	-0.045735706
199	0x3d95ed73	0.073206805
200	0x3d69fd37	0.05712625
201	0xbd2d8d8b	-0.042371314
202	0xbda3a78e	-0.07990943
203	0x3dd195ba	0.10233636
204	0x3da504c7	0.08057552
205	0xbcb58430	-0.022157758
206	0x3d97d92f	0.07414471
207	0x39d3d17d	0.00040401137
208	0x3a341f01	0.0006871075
209	0xbda38afc	-0.079854935
210	0xbc2507b2	-0.0100726355
211	0x3d9df98b	0.07713612
212	0x3dd2f7a5	0.10301141
213	0x3d26a70e	0.04068666
214	0xbd57a3d1	-0.052646462
215	0x3dcc1d28	0.099664986
216	0x3c7750ff	0.015094995
217	0x3ccde12f	0.02513179
218	0xbae06891	-0.0017121007
219	0xbd65422c	-0.05597131
220	0xbd34a296	-0.044100367
221	0x3d16e55f	0.03683984
222	0x3d0da68f	0.03458267
223	0xbc20de6e	-0.009818656
224	0x3cb4d8f8	0.022076115
225	0x3da07bc7	0.07836109
226	0x3d48f6be	0.049063437
227	0x3db9f6c5	0.09080271
228	0xbcc38817	-0.023868604
229	0x3d279999	0.040917967
230	0x3dc2fcc0	0.095208645
231	0x3d878c95	0.06618611
232	0xbd99fb31	-0.07518614
233	0x3dbc509f	0.09195065
234	0x3d842d16	0.06453912
235	0x3b0cd61c	0.0021489924
236	0xbd8334a5	-0.064065255
237	0xbca7ae9b	-0.020469
238	0x3d81dc9e	0.063409075
239	0x3da623e0	0.08112311
240	0x3cb108c2	0.021610621
241	0xbd91f7e4	-0.071273595
242	0x3d3325e4	0.043737307
243	0xbd649569	-0.05580655
244	0xbd459e42	-0.04824663
245	0x3d1bb4e5	0.03801431
246	0xbcfcdd12	-0.030867133
247	0xbc1bf618	-0.009519123
248	0xbd5ce90b	-0.053933185
249	0x3cdf93e9	0.027292209
250	0x3d9c12ac	0.07620749
251	0xbb9ed482	-0.0048471102
252	0xbc6dd3fb	-0.014515872
253	0x3c4ad683	0.012380245
254	0xbd38c721	-0.04511178
255	0x3c9c7617	0.019099278

fc.weight f4 [2, 128]
0	0x3dca9cd6	0.09893195
1	0xbdbcb817	-0.092148
2	0x3c66f854	0.014097292
3	0x3d113217	0.03544816
4	0xbbf47292	-0.007459947
5	0x3e04db96	0.1297439
6	0xbdecd736	-0.11564486
7	0x3da75c5b	0.08171912
8	0xbdc778ec	-0.09739861
9	0xbd66b605	-0.05632593
10	0x3d3661fc	0.04452704
11	0x3bc7ae40	0.0060937703
12	0xbc8e3c26	-0.017362665
13	0xbe01f046	-0.12689313
14	0x3dd11e6a	0.10210879
15	0x3d6c0bf7	0.057628598
16	0x3dddfce1	0.108392484
17	0xbcb9bf1d	-0.022674138
18	0x3d0336a5	0.032034535
19	0x3cda951b	0.026682427
20	0x3cf01f05	0.029311666
21	0x3db6ec2b	0.08931764
22	0xbd724ba2	-0.05915416
23	0xbd5769fd	-0.052591313
24	0xbcdd9876	-0.027050238
25	0x3b53a3e3	0.003229373
26	0x3d125e1d	0.035734285
27	0x3dbf35ee	0.09336458
28	0xbe2cbeb1	-0.16869618
29	0x3dc90775	0.098158754
30	0x3d40b994	0.04705198
31	0xbda83be0	-0.08214545
32	0xbd79b93f	-0.06096768
33	0xbc8b030f	-0.016969232
34	0x3de420ac	0.11139044
35	0xbd0c5a72	-0.034265943
36	0x3defc24d	0.11706982
37	0xbdf7d957	-0.12102001
38	0xbcefd973	-0.029278493
39	0x3d3567c2	0.044288404
40	0x3e017d5b	0.12645476
41	0x3d98cdab	0.07461103
42	0x3e13c168	0.14429247
43	0x3d5e50a1	0.054276112
44	0x3d0512c8	0.032488614
45	0x3e07384a	0.13205066
46	0xbd24b683	-0.04021312
47	0x3d9f0690	0.077649236
48	0x3db62a36	0.0889477
49	0xbd2fd38f	-0.042926367
50	0x3defd9e3	0.117114805
51	0x3b37f04c	0.0028066812
52	0xbdcbd2e0	-0.099523306
53	0xbd3d4f92	-0.046218462
54	0x3e231960	0.15927649
55	0xbde53f84	-0.11193755
56	0xbde75d2e	-0.112970695
57	0xbca077d4	-0.019588389
58	0x3bd7d6c9	0.0065868837
59	0x3c90413c	0.017609231
60	0x395e3ce3	0.00021194252
61	0x3d03da6d	0.03219073
62	0xbdeb155e	-0.11478685
63	0x3df82e4a	0.12118204
64	0xbcbf0b15	-0.023320714
65	0x3d8a3b43	0.067495845
66	0xbb379c34	-0.0028016688
67	0xbd707cd9	-0.058712814
68	0xbdbb8fb2	-0.09158267
69	0x3c88f05b	0.016716173
70	0xbd6d9e59	-0.05801234
71	0xbdc2d31f	-0.095129244
72	0x3c5756bb	0.013143237
73	0x3d03d072	0.03218121
74	0xbd008f58	-0.031386703
75	0xbda1eae4	-0.0790613
76	0x3e109c0d	0.14122029
77	0x3dd7d46c	0.10538563
78	0x3debc447	0.11512046
79	0x3d4a3fe2	0.04937733
80	0xbd26e5d7	-0.040746536
81	0x3d595ebc	0.05306886
82	0x3df5eb37	0.12007754
83	0x3e02bd9d	0.12767644
84	0xbd5b4ca6	-0.053539895
85	0xbdf7afa4	-0.12094048
86	0xbda90994	-0.0825378
87	0xbd40a25e	-0.047029845
88	0xbcf852ad	-0.03031286
89	0xbc5a878d	-0.013337982
90	0xbdb3e1d2	-0.08783306
91	0xbda45419	-0.08023853
92	0xbd83a190	-0.064273
93	0x3d6f3b2c	0.05840604
94	0xbd483456	-0.048878036
95	0xbdc0e85c	-0.09419319
96	0xbb823ebb	-0.003974763
97	0xbd49b0fa	-0.049241044
98	0x3d1ce65a	0.038305618
99	0x3dedffae	0.11621033
100	0xbdbd502a	-0.09243806
101	0xbc708186	-0.014679318
102	0x3e0281b1	0.12744786
103	0x3cc6dcc6	0.024275195
104	0xbcc86799	-0.024463462
105	0xbda383e8	-0.079841435
106	0x3cb54105	0.02212573
107	0x3d8bf722	0.06834246
108	0xbdd6c1bb	-0.1048617
109	0x3d49f8c5	0.04930951
110	0x3cbcbec0	0.023040175
111	0xbba42dc2	-0.0050103376
112	0xbdbe8833	-0.09303322
113	0xbd270e76	-0.040785275
114	0x3d919742	0.07108928
115	0xbd0d8cda	-0.034558155
116	0xbde01372	-0.10941209
117	0xbda490f7	-0.08035462
118	0xbd1f5298	-0.038897127
119	0xbd31cbbf	-0.043407198
120	0x3b91d7b8	0.0044507645
121	0xbd5eea2d	-0.054422546
122	0xbdba66e3	-0.09101655
123	0xbdb3c04f	-0.08776914
124	0x3dca3c77	0.09874814
125	0xbd238779	-0.03992412
126	0xbcbad474	-0.022806384
127	0xbdbb1aa5	-0.091359414
128	0xbd17be10	-0.037046492
129	0x3d52bc62	0.051449187
130	0xbd3e8bae	-0.046519928
131	0xbd8f6676	-0.07001965
132	0x3af92cbc	0.0019010524
133	0xbd942f8e	-0.07235633
134	0x3d814fc3	0.063140415
135	0x3d46e34c	0.04855661
136	0x3db5b054	0.088715225
137	0x3dbb3ce9	0.09142477
138	0x3cdaaf27	0.026694847
139	0x3c132020	0.008979827
140	0xbc5480f0	-0.012970194
141	0x3dce5b84	0.10076049
142	0xbdbcdb98	-0.09221572
143	0xbd970d52	-0.073755875
144	0xbce93605	-0.028468141
145	0x3b7af3f1	0.0038292373
146	0xbd97ca48	-0.07411629
147	0xbdc8b217	-0.09799593
148	0x3d0269cc	0.031839177
149	0x3c814da0	0.015784085
150	0x3cf6638e	0.030076768
151	0xbc73aef4	-0.014873255
152	0x3dddfa8f	0.10838806
153	0x3cbc55a7	0.022990061
154	0xbdd62c4d	-0.104576685
155	0xbdfa13d7	-0.122108154
156	0x3d1d670c	0.03842835
157	0xbbe8185a	-0.007082981
158	0xba206e9b	-0.0006119997
159	0xbcd43159	-0.025902437
160	0x3d2bd596	0.04195174
161	0x3bd3aec9	0.006460045
162	0xbdb48b67	-0.088156514
163	0x3e114b63	0.14188914
164	0xbbe6e083	-0.007045807
165	0x3e095876	0.13412651
166	0x3d0bbd57	0.034116115
167	0xbdd653ef	-0.10465228
168	0x3c703042	0.014659943
169	0xbdad537e	-0.084631905
170	0xbd9b6a10	-0.07588589
171	0xbda3adc4	-0.079921275
172	0x3d8238ed	0.06358514
173	0xbd446db3	-0.04795618
174	0x3d433610	0.04765898
175	0xbda5a9a6	-0.080889985
176	0x3ca9c8e3	0.020725673
177	0x3d1095b6	0.035299025
178	0xbd8c0b68	-0.06838113
179	0x3d507858	0.05089602
180	0x3de65f92	0.11248697
181	0x3e005513	0.12532453
182	0xbd64d7ba	-0.055869795
183	0x3d2b1a0c	0.041772887
184	0x3c14efa9	0.009090343
185	0x3dd86d0b	0.10567673
186	0xbdb07710	-0.08616459
187	0x3aba05cf	0.0014192405
188	0xbdc40eb2	-0.095731154
189	0x3d8233a5	0.06357507
190	0xbc231a61	-0.00995502
191	0xbde05128	-0.10952979
192	0xbd9218d9	-0.071336456
193	0x3d9c3090	0.0762645
194	0x3da70cda	0.08156748
195	0xbdd0bfc0	-0.101928234
196	0x3db37a0a	0.087635115
197	0x3d4432ee	0.047900133
198	0x3dc3337b	0.095313035
199	0xbcd53371	-0.026025506
200	0x3d8741e2	0.06604363
201	0xbd8a2599	-0.067454524
202	0x3d916745	0.07099775
203	0x3de06521	0.10956789
204	0xbd399074	-0.045303777
205	0xbd018ecf	-0.031630334
206	0xbdaf1fd0	-0.0855099
207	0x3d9b261e	0.0757563
208	0x3e1e8365	0.1547981
209	0xbd518ebe	-0.05116152
210	0xbe1488e4	-0.14505345
211	0xbde2625a	-0.11053915
212	0x3db1be28	0.086788476
213	0xbc2662ac	-0.010155361
214	0x3c9771bd	0.018486852
215	0x3e01bc7e	0.1266956
216	0xbd2f48d8	-0.04279408
217	0xbd1406cd	-0.0361393
218	0x3db8a1d6	0.09015243
219	0x3d9c1fca	0.07623251
220	0xbd2f89f1	-0.04285616
221	0x3ce1ae3d	0.027548904
222	0x3c8aa092	0.016922269
223	0x3cfc3139	0.03078519
224	0xbcef6319	-0.029222058
225	0x3df1d13d	0.11807487
226	0xbd8ff292	-0.070286885
227	0xbda3069c	-0.07960245
228	0x3d0f53bf	0.034991976
229	0xbd1188e0	-0.035530925
230	0xbd6e026d	-0.058107782
231	0x3de20e6e	0.110379085
232	0xbd084083	-0.03326465
233	0x3d41fdb6	0.0473611
234	0x3dba9fb5	0.09112493
235	0xbda0b400	-0.07846832
236	0xbd6f3b61	-0.058406238
237	0xbd8282d1	-0.063726075
238	0xbd9c28dc	-0.07624981
239	0xbddb4b43	-0.107077144
240	0x3cdf8b59	0.027288126
241	0x3d2f297c	0.042764172
242	0xbd8c4cb7	-0.0685057
243	0xbdaea027	-0.085266404
244	0x3dae5416	0.08512132
245	0x3e09d544	0.1346026
246	0x3e1b4e88	0.15166676
247	0x3dbac407	0.091194205
248	0xbdac2ee6	-0.08407383
249	0xbd0d018e	-0.03442531
250	0xbbc05cd8	-0.005870443
251	0x3d42207e	0.04739427
252	0x3cf47337	0.029840095
253	0xbd9417c1	-0.07231093
254	0xbd9910ed	-0.074739315
255	0x3cf62730	0.030047983

fc.bias f4 [2]
0	0xbd95e959	-0.07319898
1	0xbcb5a025	-0.02217109
