models/squat_lstm.pth (torch, 339119 bytes, 6 tensors)

lstm.weight_ih_l0 f4 [512, 34]
0.04530081 -0.004544768 -0.008309276 -0.033202257 -0.026745511 -0.06698727 -0.03210755 0.03553015
-0.054225203 -0.023786502 0.021514377 0.02848831 -0.07761282 -0.05565971 0.07336783 -0.07157771
-0.030653205 -0.05635112 0.03997626 0.07976028 -0.077041 -0.022220075 0.0808905 0.063698314
-0.00055802776 0.06663211 0.0632951 -0.040902514 -0.027031556 0.046010517 0.060669415 -0.020616276
-0.00019055641 0.07149481 -0.054335345 0.031980798 0.021076785 -0.07779316 -0.0075612403 0.032533247
-0.08890772 -0.03201518 -0.008953091 -0.02349414 0.012512147 0.058099125 0.061912347 -0.08166508
0.09890235 0.094881624 -0.016344424 -0.08068291 0.032178108 0.08484385 0.043264363 -0.03209794
-0.020694563 -0.076382115 0.07525662 -0.00043007705 -0.069163084 -0.07253075 0.09402422 -0.03731582
-0.038709488 0.08959847 -0.031813662 0.0702341 0.099701256 0.07362296 0.037296705 0.10700071
0.044004608 -0.056040965 -0.043387946 0.031972583 -0.029364726 0.01763474 0.026628073 0.004529157
-0.028892452 -0.0360757 -0.057638023 0.017004585 -0.08313318 -0.0140524935 -0.0076454 0.043333393
-0.023842532 0.03132406 0.030024705 0.088188134 -0.016611207 -0.02173764 -0.056379534 0.010506582
-0.039722852 -0.016341731 0.02974065 -0.008611497 -0.096423805 -0.019962465 0.055764202 0.03488074
-0.027664002 0.07819563 0.03413881 0.092011794 -0.020306863 -0.044612795 -0.015705349 -0.03801702
-0.009708185 -0.0065569817 -0.07258911 0.08314634 -0.07024605 -0.08223217 -0.07367019 -0.06311171
-0.015429817 -0.03911553 0.08913433 0.06458799 0.058527924 0.002703473 -0.054832924 -0.007204433
-0.07767638 0.031893134 0.013332511 0.011516872 -0.012146079 -0.06531729 -0.02194913 0.027443783
0.045221303 0.07780065 0.043717723 0.0022531513 0.022693014 0.011302818 -0.055913568 0.034580357
0.06110471 0.006653586 -0.08332872 -0.020111818 -0.013736123 0.010129213 -0.046796657 0.060948674
-0.0061569195 0.065679036 -0.046035733 -0.0036752475 -0.08917575 -0.075772256 -0.022002276 -0.065671965
0.024394779 -0.06383706 0.03315952 -0.036671717 0.031766757 0.03619049 -0.0021829796 0.049401656
-0.0052162427 0.046372127 0.09952793 -0.009964512 0.038952533 0.08080817 0.079125516 0.08362955
0.00613149 -0.018479688 0.014414115 0.07755081 0.01895246 0.01987297 0.049907323 -0.073381744
0.05173592 -0.05587588 0.011350345 0.07887959 -0.054824546 0.04906263 0.043845337 0.014748447
-0.051872015 -0.04038502 -0.08349714 -0.049144898 -0.039347403 0.06089031 0.0704253 0.016520407
-0.009194736 -0.053876698 -0.062158573 -0.038520873 -0.044645775 0.0709681 -0.021491652 0.008298472
0.08801929 -0.06448533 0.041389115 0.053552814 0.06313765 -0.015770812 0.07972173 0.0021848902
0.040351216 0.058688622 0.033511803 0.076826565 -0.048783574 -0.059858255 -0.012247652 -0.06674017
-0.046625447 0.014060639 0.07843685 -0.029581374 0.0016969143 0.0039157956 0.059380006 -0.01688083
0.047601994 -0.0073204758 0.013430408 0.0047091777 -0.054924376 -0.012061779 -0.0014605662 -0.030570945
0.099195264 0.01025573 0.09267614 0.03027031 0.087717295 0.016792286 -0.06604322 -0.078658134
-0.06486566 -0.048183445 -0.069454126 -0.026798122 0.005041215 -0.04655849 0.082640715 0.013086287
00000000: 588d 393d 47ec 94bb a123 08bc 17ff 07bd
00000010: 6719 dbbc 9f30 89bd 3583 03bd 1088 113d
00000020: 3f1b 5ebd e9db c2bc eb3e b03c 5160 e93c
00000030: 78f3 9ebd 70fb 63bd df41 963d 5697 92bd
00000040: 6e1c fbbc 6fd0 66bd 26be 233d 5c59 a33d
00000050: acc7 9dbd e006 b6bc eba9 a53d 4374 823d
00000060: 9c48 12ba 6a76 883d dda0 813d 6589 27bd
00000070: 4871 ddbc 8675 3c3d 7e80 783d 77e3 a8bc
00000080: 19d0 47b9 df6b 923d bd8e 5ebd 4cfe 023d
00000090: 39a9 ac3c 0552 9fbd 48c4 f7bb 9541 053d
000000a0: 4015 b6bd 5922 03bd fcaf 12bc c876 c0bc
000000b0: c0ff 4c3c 59f9 6d3d cd97 7d3d 0540 a7bd
000000c0: 518d ca3d 4c51 c23d bee4 85bc 153d a5bd
000000d0: 31cd 033d 9dc2 ad3d f935 313d 2179 03bd
000000e0: a587 a9bc 3a6e 9cbd 2520 9a3d f77b e1b9
000000f0: 60a5 8dbd 008b 94bd c58f c03d 79d8 18bd
00000100: d78d 1ebd 677f b73d 0b4f 02bd e5d6 8f3d
00000110: 2c30 cc3d a2c7 963d 6ec4 183d 3023 db3d
00000120: 2d3e 343d 368b 65bd 8fb7 31bd aff5 023d
00000130: 4b8e f0bc bb76 903c 1e23 da3c 5369 943b
00000140: ddaf ecbc 1dc4 13bd d915 6cbd 334d 8b3c
00000150: bb41 aabd 6e3c 66bc 4386 fabb 5b7e 313d
00000160: 6a51 c3bc a84d 003d 5ff6 f53c fb9b b43d
00000170: 3a14 88bc 2313 b2bc 3aee 66bd cd23 2c3c
00000180: 6eb4 22bd 18df 85bc aaa2 f33c 3c17 0dbc
00000190: d879 c5bd 5388 a3bc 0169 643d 1bdf 0e3d
000001a0: 9e9f e2bc 0825 a03d 23d5 0b3d ae70 bc3d
000001b0: 945a a6bc e8bb 36bd 81a8 80bc bcb7 1bbd
000001c0: 140f 1fbc f3db d6bb 99a9 94bd a148 aa3d
000001d0: 29dd 8fbd 5769 a8bd 66e0 96bd b640 81bd
000001e0: 58cd 7cbc 9b37 20bd 0f8c b63d b546 843d
000001f0: faba 6f3d c02c 313b 7d98 60bd 2a13 ecbb
00000200: cb14 9fbd 60a2 023d 9b70 5a3c 43b1 3c3c
00000210: 5900 47bc 12c5 85bd a9ce b3bc c9d1 e03c
00000220: f939 393d f255 9f3d 5b11 333d 9ba9 133b
00000230: b3e6 b93c 742f 393c a005 65bd 22a4 0d3d
00000240: ef48 7a3d 5306 da3b 3fa8 aabd 8ac1 a4bc
00000250: 7a0d 61bc 00f5 253c daad 3fbd 51a5 793d
00000260: fcbf c9bb bb82 863d f78f 3cbd 6cdc 70bb
00000270: c7a1 b6bd 7c2e 9bbd 1e3e b4bc 067f 86bd
00000280: 8fd7 c73c 01bd 82bd 47d2 073d 1535 16bd
00000290: dc1d 023d 7b3c 143d 5210 0fbb 6459 4a3d
000002a0: 04ed aabb b3f0 3d3d 4dd5 cb3d 3142 23bc
000002b0: b18c 1f3d c17e a53d 8f0c a23d f845 ab3d
000002c0: abea c83b b762 97bc 2e29 6c3c f6d2 9e3d
000002d0: 3042 9b3c a4cc a23c 9f6b 4c3d 2b49 96bd
000002e0: 0be9 533d 1bde 64bd ccf6 393c 9f8b a13d
000002f0: b48f 60bd e5f5 483d 2b97 333d 78a3 713c
00000300: c077 54bd c36a 25bd 8c00 abbd 294c 49bd
00000310: be2a 21bd 1e68 793d 243b 903d ce55 873c
00000320: 85a5 16bc d0ad 5cbd fd99 7ebd 10c8 1dbd
00000330: 7dde 36bd b957 913d 430f b0bc 50f6 073c
00000340: 7543 b43d e210 84bd a287 293d 325a 5b3d
00000350: 504e 813d ca31 81bc 2545 a33d 6030 0f3b
00000360: 5147 253d 7b63 703d ac43 093d 3f57 9d3d
00000370: 49d1 47bd ee2d 75bd 60aa 48bc 12af 88bd
00000380: 53fa 3ebd 985e 663c 80a3 a03d a354 f2bc
00000390: ff6a de3a 1350 803b 7338 733d ab49 8abc
000003a0: 4ffa 423d 9ae0 efbb 370b 5c3c 724f 9a3b
000003b0: 62f8 60bd c59e 45bc 7870 bfba eb6f fabc
000003c0: e326 cb3d a607 283c fdcc bd3d 71f9 f73c
000003d0: 20a5 b33d fa8f 893c ab41 87bd 8417 a1bd
000003e0: 4ad8 84bd 015c 45bd f73d 8ebd bc87 dbbc
000003f0: c730 a53b 1db4 3ebd 893f a93d de67 563c

lstm.weight_hh_l0 f4 [512, 128]
0.10259435 -0.06468188 -0.0034775678 0.03788936 0.016272934 0.058066633 0.073000416 -0.0059378836
-0.0033679814 0.058102883 -0.02782679 -0.045007292 0.07652389 -0.0011425603 0.01696878 0.029615974
0.007222482 0.013162977 0.006609844 0.079388455 0.071824394 -0.108907685 0.053927522 0.018363519
-0.05408541 -0.05162054 0.051909495 0.07291912 -0.09026817 -0.028059933 0.0127817495 0.096565835
0.036976222 0.06415076 -0.0597094 0.03632102 0.07328365 -0.0036612295 0.024663562 -0.02609328
-0.042280227 -0.06787702 0.10612923 -0.08217446 -0.060840882 -0.041911572 0.040851757 -0.07108361
0.09146859 -0.021771735 -0.0062319147 -0.015453996 -0.0158715 -0.06386839 0.030941032 -0.04904593
0.026154576 -0.0019023544 0.006514077 -0.054621954 0.038708463 -0.07802364 -0.012401869 -0.096436076
0.0688299 0.015613295 -0.030313369 0.04279419 0.041935723 0.0058749267 0.045745566 0.025160503
0.010263021 -0.026572455 0.047757357 -0.07448261 0.027127376 -0.06878899 -0.043830093 0.008663249
-0.010812581 0.014658929 -0.0077690585 -0.04688581 -0.10107934 -0.007529301 0.09251773 -0.061982356
-0.077435635 0.070985116 0.007186166 -0.051954977 0.0329578 -0.044813726 -0.057373174 0.027060598
0.009994681 -0.03693768 -0.087628104 -0.033427157 -0.0006288237 0.053358126 -0.047542352 0.025132103
-0.01040588 0.012509509 -0.035204623 -0.031110708 -0.019213986 0.0365487 -0.08539846 -0.046001382
0.051169068 -0.027334878 -0.046165116 0.035245117 0.046883922 -0.04818836 -0.05242729 0.03935148
-0.0041115214 0.09348903 -0.040506896 -0.038628407 -0.080470525 0.08468573 0.08183159 0.07025755
-0.047626477 0.029670494 0.05861184 0.048550647 0.022557152 -0.026110861 -0.020723559 -0.03655219
-0.08295827 -0.087046325 0.062310725 -0.01706603 -0.007660036 -0.08794767 -0.023384329 0.040307406
-0.040078033 -0.017717531 0.05123543 -0.0033725284 -0.01573009 -0.04032432 -0.020916607 0.06306536
0.06758299 0.031235864 0.08031538 -0.043947227 0.020360945 -0.015846735 0.05393015 -0.006166978
0.028172292 -0.07549842 -0.029229406 0.06535192 -0.078764044 -0.013124549 0.040741716 -0.076022364
0.02855527 0.04247272 0.06565233 -0.007364739 -0.07388491 0.004495062 -0.028170705 0.031690434
0.046749026 0.056083553 0.040669177 -0.07730973 -0.051556572 -0.07534153 -0.07777071 -0.011720448
0.053427797 -0.017145105 -0.035699982 0.060152672 0.028163355 0.056854103 -0.04559947 -0.013219548
0.00029084072 -0.02994845 -0.057643175 -0.05042252 -0.0004787537 0.10358856 -0.06591688 -0.04134263
0.08177637 -0.015561895 -0.04238536 -0.0070619946 -0.017541394 -0.06127589 -0.019339237 -0.058413703
-0.08841222 -0.033335753 -0.055673532 0.061556496 -0.057795048 0.0077962223 -0.052587427 0.01065044
0.07138907 0.021369785 -0.07379438 0.06936181 0.00758158 0.08025175 -0.043876152 0.061966125
-0.071570255 -0.030981632 0.01545482 -0.061132092 -0.010494321 -0.02046101 -0.022648092 0.043600425
-0.022661272 -0.051438197 0.010932156 0.060536172 -0.016956605 0.09562193 -0.016254399 0.01711079
0.09403719 -0.012796017 0.0036988463 -0.06871644 0.047504704 -0.0793789 0.08067614 -0.054273844
0.0049804575 0.04318423 0.082068205 0.056085765 -0.0682366 0.01975673 -0.0738079 -0.0716341
00000000: fd1c d23d ef77 84bd e8e7 63bb e031 1b3d
00000010: d14e 853c 47d7 6d3d 3e81 953d 9492 c2bb
00000020: 5ab9 5cbb 4afd 6d3d 02f5 e3bc 9159 38bd
00000030: 8fb8 9c3d f6c1 95ba 1c02 8b3c 339d f23c
00000040: 92aa ec3b 87a9 573c 6497 d83b 6a96 a23d
00000050: ab18 933d fe0a dfbd 1be3 5c3d 176f 963c
00000060: aa88 5dbd 0f70 53bd 0d9f 543d 9f56 953d
00000070: 85de b8bd f2dd e5bc 8b6a 513c 4fc4 c53d
00000080: 6174 173d 7961 833d d891 74bd 5ac5 143d
00000090: bd15 963d 3df1 6fbb 3d0b ca3c 93c1 d5bc
000000a0: 082e 2dbd 1b03 8bbd 485a d93d 154b a8bd
000000b0: 4a34 79bd 78ab 2bbd 2c54 273d 4994 91bd
000000c0: e253 bb3d a35a b2bc 1735 ccbb c232 7dbc
000000d0: f304 82bc 6ecd 82bd 0c78 fd3c 63e4 48bd
000000e0: 1f42 d63c 6c58 f9ba 0a74 d53b 45bb 5fbd
000000f0: c48c 1e3d dcca 9fbd 3531 4bbc 4780 c5bd
00000100: b1f6 8c3d e8ce 7f3c be53 f8bc f648 2f3d
00000110: cbc4 2b3d 7582 c03b b45f 3b3d 661d ce3c
00000120: 3b26 283c 7aae d9bc 389d 433d 578a 98bd
00000130: 3b3a de3c 3ee1 8cbd 2f87 33bd 4df0 0d3c
00000140: 4027 31bc 012c 703c 9693 febb 560b 40bd
00000150: af02 cfbd 5bb8 f6bb f079 bd3d 36e1 7dbd
00000160: 9396 9ebd a560 913d ee79 eb3b bece 54bd
00000170: c2fe 063d 998e 37bd 2200 6bbd 30ae dd3c
00000180: bbc0 233c f74b 17bd 5d76 b3bd eaea 08bd
00000190: a5d7 24ba 0d8e 5a3d c5bb 42bd d7e1 cd3c
000001a0: 6d7d 2abc aff4 4c3c b932 10bd e2db febc
000001b0: a666 9dbc 17b4 153d 63e5 aebd f26b 3cbd
000001c0: a896 513d 65ed dfbc a217 3dbd 2f5d 103d
000001d0: 5b09 403d 2861 45bd ffbd 56bd 042f 213d
000001e0: f1b9 86bb 2d77 bf3d 8fea 25bd d238 1ebd
000001f0: bbcd a4bd b66f ad3d 5297 a73d 31e3 8f3d
00000200: fb13 43bd 890f f33c f812 703d 0bdd 463d
00000210: c7c9 b83c 72e6 d5bc 74c4 a9bc c0b7 15bd
00000220: 07e6 a9bd 5845 b2bd 8839 7f3d 0fce 8bbc
00000230: 0a01 fbbb e81d b4bd 7e90 bfbc 6119 253d
00000240: dd28 24bd 5b24 91bc 3edc 513d a305 5dbb
00000250: 64dc 80bc 1d2b 25bd 4e59 abbc 6928 813d
00000260: f368 8a3d 5be2 ff3c 647c a43d 0202 34bd
00000270: ffcb a63c 03d1 81bc dce5 5c3d 5c14 cabb
00000280: 94c9 e63c ea9e 9abd 8272 efbc 3ad7 853d
00000290: 0b4f a1bd 5908 57bc c9e0 263d 9db1 9bbd
000002a0: beec e93c e0f7 2d3d bb74 863d e953 f1bb
000002b0: f950 97bd 504b 933b 40c6 e6bc d4cd 013d
000002c0: e87b 3f3d deb7 653d b994 263d 9054 9ebd
000002d0: fc2c 53bd a94c 9abd 4046 9fbd 1f07 40bc
000002e0: 1bd7 5a3d e473 8cbc 253a 12bd a662 763d
000002f0: d6b6 e63c d9df 683d 83c6 3abd ce96 58bc
00000300: fb7b 9839 7456 f5bc 401b 6cbd d887 4ebd
00000310: 3c01 fbb9 3d26 d43d 6eff 86bd e456 29bd
00000320: 5f7a a73d 52f7 7ebc 459c 2dbd 4e68 e7bb
00000330: f8b2 8fbc 6dfc 7abd 526d 9ebc 3543 6fbd
00000340: 7711 b5bd 128b 08bd ee09 64bd aa22 7c3d
00000350: 80ba 6cbd 7477 ff3b ea65 57bd 2f7f 2e3c
00000360: 6f34 923d b00f af3c 8221 97bd 910d 8e3d
00000370: e76e f83b 085b a43d 7bb7 33bd 31d0 7d3d
00000380: 6d93 92bd 31cd fdbc 3736 7d3c a565 7abd
00000390: 5ff0 2bbc d99d a7bc 7e88 b9bc 5c96 323d
000003a0: 22a4 b9bc dcb0 52bd c91c 333c c7f4 773d
000003b0: 94e8 8abc 6ed5 c33d f227 85bc ed2b 8c3c
000003c0: 9296 c03d 63a6 51bc 5868 723b 34bb 8cbd
000003d0: 4b94 423d 6891 a2bd 8839 a53d 404e 5ebd
000003e0: 1b33 a33b f2e1 303d 6013 a83d 30ba 653d
000003f0: a1bf 8bbd ded8 a13c 9928 97bd e6b4 92bd

lstm.bias_ih_l0 f4 [512]
0.054618932 0.0051141493 0.0597531 -0.041965958 0.035966296 -0.06257488 0.021646162 -0.05735943
0.007091194 0.04740392 -0.05359991 -0.08045141 0.042457648 0.08235733 0.07762886 0.041036084
-0.06478767 0.050281502 0.07566126 -0.0016612298 0.055184443 -0.0054094894 0.03636478 -0.05834496
-0.030646436 -0.034614164 0.02334232 0.03181962 0.03480861 0.04022185 -0.02545856 0.07635507
-0.0013612729 0.012759765 0.08423282 0.050275017 0.069012195 -0.021949265 0.06778631 0.031573597
-0.046971865 0.039325625 0.049658086 -0.039860137 0.03611204 -0.040418714 0.08616072 0.040666886
-0.0031169408 0.04859233 -0.050493028 0.07832597 -0.0001067284 0.09935889 -0.056327272 0.043727357
-0.053380124 0.11549913 0.011858571 0.044295866 -0.06983182 -0.018932091 -0.014624103 -0.020840008
-0.043198057 0.08714703 0.0934804 0.1092076 -0.063144445 0.019606173 -0.038308434 0.043315344
-0.020534439 0.021083502 -0.015546261 0.05780152 0.010718741 0.028036544 -0.050224368 -0.04401797
0.02598085 0.11029281 -0.026588261 0.011267867 0.028071202 0.0935779 -0.030216567 -0.075956985
0.072268054 -0.024428368 0.027709657 -0.062492803 0.028617572 0.08646092 -0.049281828 0.028420009
0.025373425 0.034700986 -0.035985604 -0.026536396 0.038766798 0.0742914 -0.061169527 0.020692168
0.0017033861 -0.0059792153 -0.029044429 0.036837332 0.06852124 -0.04955014 0.028704537 0.02311623
0.10443678 -0.055310283 -0.05542006 -0.059462335 0.041507326 -0.07466169 0.024113728 0.031068454
-0.03103696 -0.025295092 -0.041558504 -0.059666086 -0.015636489 -0.051379334 0.026657041 0.064525254
-0.054245435 0.005525243 -0.013684023 -0.0060805245 0.04585244 -0.004045955 0.07819872 -0.062447365
0.018605027 -0.0683263 -0.024177913 -0.09116921 0.06281969 -0.024553884 0.10925687 -0.030570356
0.090343796 0.08082552 -0.00086326484 0.105157964 -0.04734149 -0.020382209 0.08345908 0.013699829
0.08262913 0.10776442 -0.0936325 0.02951828 0.009048872 -0.027980845 -0.014224362 -0.0048000496
0.012120442 0.015134235 -0.003370624 0.032470264 0.01877868 -0.046873175 0.0658911 0.09684221
0.021207117 -0.033919875 0.04220701 0.022728978 0.0028140475 -0.017801119 0.018526603 -0.01971615
0.07826157 0.09630386 -0.0707438 0.011630966 -0.022311587 -0.018578023 -0.018615577 0.09656852
-0.066860616 -0.043235343 -0.056331895 0.09996373 0.068087384 0.07143734 0.0950389 -0.059392434
-0.0909062 0.07572108 -0.010181223 0.062172677 -0.038038477 0.08196774 0.07676221 -0.0011386022
0.056840226 0.044172402 -0.012332748 0.02435258 0.109648034 0.056651812 0.06388418 -0.031577904
0.08233148 0.047943693 0.03110945 -0.042227514 0.06907272 -0.02140446 0.040901814 0.016854279
0.07757668 -0.03848631 -0.02404729 0.09457905 0.07568453 -0.022490017 0.08205718 0.020525802
0.085258074 0.02257521 0.0042923097 0.013581876 0.06595339 -0.067214176 -0.01435696 0.03068977
0.091963746 -0.044004254 0.01237921 0.016598374 -0.012321252 0.023350887 0.08442735 0.022778235
0.06592577 -0.06153524 0.04884549 0.030655613 0.029669603 0.07034027 0.035269786 0.017864702
-0.02242681 0.03606646 0.020417428 0.08215496 0.022194639 -0.029498981 -0.010770769 0.0018027057
00000000: 1ab8 5f3d 9894 a73b abbf 743d 7fe4 2bbd
00000010: 6551 133d 4227 80bd 4b53 b13c b9f1 6abd
00000020: 3f5d e83b 9d2a 423d 948b 5bbd b5c3 a4bd
00000030: 12e8 2d3d f6aa a83d e1fb 9e3d 7415 283d
00000040: 66af 84bd faf3 4d3d 4af4 9a3d 9fbd d9ba
00000050: 1509 623d 1642 b1bb 3cf3 143d 20fb 6ebd
00000060: 3c0e fbbc 95c7 0dbd 6538 bf3c 4a55 023d
00000070: 7993 0e3d abbf 243d 788e d0bc 0c60 9c3d
00000080: bd6c b2ba 550e 513c 4282 ac3d 2ded 4d3d
00000090: 4456 8d3d f2ce b3bc 8dd3 8a3d 5153 013d
000000a0: 9265 40bd e813 213d 4766 4b3d 6244 23bd
000000b0: 38ea 133d 188e 25bd 0875 b03d 5292 263d
000000c0: 9745 4cbb c008 473d c7d1 4ebd 5e69 a03d
000000d0: 60d3 dfb8 ac7c cb3d 6db7 66bd 751b 333d
000000e0: 1ea5 5abd cf8a ec3d 744a 423c 956f 353d
000000f0: fc03 8fbd 7917 9bbc ef99 6fbc aab8 aabc
00000100: 72f0 30bd 247a b23d a772 bf3d 3ca8 df3d
00000110: e051 81bd 209d a03c 4ee9 1cbd 6e6b 313d
00000120: d737 a8bc 4fb7 ac3c bfb5 7ebc 49c1 6c3d
00000130: a99d 2f3c e5ac e53c 11b8 4dbd 304c 34bd
00000140: cbd5 d43c 32e1 e13d a0cf d9bc dc9c 383c
00000150: 94f5 e53c c5a5 bf3d bc88 f7bc 568f 9bbd
00000160: 4601 943d 001e c8bc 5dff e23c 74f8 7fbd
00000170: 666f ea3c 6c12 b13d bedb 49bd 14d1 e83c
00000180: eedb cf3c 9f22 0e3d a465 13bd db62 d9bc
00000190: efc9 1e3d 1726 983d e68c 7abd 9f82 a93c
000001a0: 2744 df3a 4bed c3bb 95ee edbc bee2 163d
000001b0: dd54 8c3d 16f5 4abd c725 eb3c 3f5e bd3c
000001c0: f3e2 d53d 098d 62bd 2500 63bd c78e 73bd
000001d0: 9603 2a3d 3ae8 98bd 278a c53c 4583 fe3c
000001e0: 3941 febc a737 cfbc 4039 2abd 6d64 74bd
000001f0: 1818 80bc 2373 52bd de5f da3c d125 843d
00000200: 7630 5ebd 190d b53b f432 60bc 233f c7bb
00000210: c5cf 3b3d ee93 84bb a726 a03d cfc8 7fbd
00000220: 9269 983c a9ee 8bbd c210 c6bc ecb6 babd
00000230: 9ca7 803d 3a25 c9bc 11c2 df3d af6e fabc
00000240: 2b06 b93d da87 a53d b94c 62ba 0f5d d73d
00000250: 26e9 41bd 97f8 a6bc 98ec aa3d 3f75 603c
00000260: 7639 a93d 98b3 dc3d 65c2 bfbd 52d0 f13c
00000270: b841 143c 1638 e5bc 4c0d 69bc bc49 9dbb
00000280: d294 463c 95f5 773c b0e5 5cbb 8aff 043d
00000290: bfd5 993c 16fe 3fbd eaf1 863d 3555 c63d
000002a0: 8cba ad3c 91ef 0abd 42e1 2c3d 1f32 ba3c
000002b0: e26b 383b a7d3 91bc 1ac5 973c c383 a1bc
000002c0: 9a47 a03d f53a c53d 20e2 90bd cf8f 3e3c
000002d0: cac6 b6bc f030 98bc b27f 98bc b7c5 c53d
000002e0: 38ee 88bd 8b17 31bd 46bc 66bd c9b9 cc3d
000002f0: 6671 8b3d bd4d 923d c1a3 c23d 7b45 73bd
00000300: 082d babd a713 9b3d 25cf 26bc c7a8 7e3d
00000310: 3cce 1bbd b4de a73d 8135 9d3d 263d 95ba
00000320: 4cd1 683d 1fee 343d 4b0f 4abc 107f c73c
00000330: 268f e03d bb0b 683d b5d5 823d d557 01bd
00000340: 689d a83d 9b60 443d 3fd9 fe3c c2f6 2cbd
00000350: 0076 8d3d 6858 afbc a988 273d fc11 8a3c
00000360: 86e0 9e3d d2a3 1dbd d3fe c4bc a9b2 c13d
00000370: 7e00 9b3d fc3c b8bc 980d a83d ba25 a83c
00000380: c99b ae3d a6ef b83c 81a6 8c3b 8486 5e3c
00000390: 9212 873d 96a7 89bd 7439 6bbc 1d69 fb3c
000003a0: 7d57 bc3d ce3d 34bd 2cd2 4a3c 50f9 873c
000003b0: 14df 49bc 5c4a bf3c 3fe8 ac3d 6c99 ba3c
000003c0: 1704 873d 600c 7cbd 3512 483d 7b21 fb3c
000003d0: ab0d f33c 8f0e 903d 0d77 103d ff58 923c
000003e0: 6eb8 b7bc 6dba 133d 7342 a73c dc40 a83d
000003f0: 88d1 b53c d9a7 f1bc e177 30bc c448 ec3a

lstm.bias_hh_l0 f4 [512]
0.032566566 0.018293865 0.044193637 0.0207392 0.06410435 0.0075826356 -0.0155197065 0.11147459
-0.024756921 -0.017959807 0.022455819 -0.00461443 0.061397683 -0.06449527 0.07043013 -0.03202894
0.042436875 0.07676919 0.043483686 -0.08086825 -0.0019334778 0.047358967 -0.042242065 -0.008152961
0.069610655 -0.020299498 -0.053645834 0.082938574 0.0021830418 -0.0558218 0.0731619 -0.026274495
0.04189861 0.080863446 -0.053796414 0.06342826 -0.014838041 -0.01564027 -0.023526186 0.046253268
0.051728614 -0.049624458 -0.024425676 0.07697822 -0.027495675 0.026403904 -0.02450171 0.053732976
0.034593545 -0.066994436 0.07472208 -0.04977493 0.08502553 0.060676236 0.026912317 0.0705266
0.06726592 0.08689221 -0.054475393 0.058882214 -0.009668236 -0.004329853 0.10336426 -0.062712975
-0.0834947 0.015511468 -0.04085347 0.048518445 -0.06804603 -0.0048519736 -0.05231445 -0.0561755
0.11356249 0.055889126 0.011293707 -0.03328764 -0.065852575 0.097211696 0.062060352 0.06909139
-0.037777856 0.07024581 0.011627331 0.0570718 -0.04303591 -0.046268873 -0.024684262 0.008201932
0.025612045 0.09715948 -0.0650438 0.026235603 -0.06477215 0.033386856 0.06620677 0.025706995
-0.034553632 0.04422432 0.05156721 0.047976315 0.01018057 -0.0067281374 -0.043509934 0.05585427
-0.014780969 0.103509225 -0.058903392 -0.015379486 0.09458307 0.0638886 0.105481945 0.044596467
-0.0016736708 0.056864183 -0.015496517 0.058992907 0.014801541 -0.008118374 0.046233088 0.03861523
-0.045437682 0.07232092 0.030983295 -0.048515968 0.09208984 0.0023394874 0.04952301 -0.021750921
-0.0004944264 -0.06243824 -0.0031933277 0.026001502 -0.06981145 -0.025972338 0.06149963 0.071384646
-0.016880639 -0.0955286 -0.0006038398 -0.04778961 0.053943146 -0.0006073018 0.10875145 0.054581083
-0.055583175 -0.049616843 -0.006991942 0.069425695 0.063202456 0.0171368 -0.07343787 -0.041692525
0.028799852 -0.011745386 0.05558353 -0.06568298 -0.061866116 0.079943225 -0.015425514 -0.042062987
0.0772433 0.042205155 0.0036372426 0.025217634 0.090718016 -0.07014983 -0.02796626 0.0749558
0.055019114 0.033511605 -0.06294937 -0.02960518 0.07856503 -0.013923766 -0.037996277 0.07073854
0.012573445 -0.06138288 0.022102667 0.0021564271 0.03765187 0.078682296 0.068239056 0.0951303
-0.012170723 0.017480811 -0.027880503 -0.05913132 0.03574072 0.046790715 0.06553995 -0.02849608
-0.055351757 -0.027411563 0.0978399 -0.052955303 0.062446956 0.0010493902 -0.016967563 -0.07504636
0.07738341 0.068705246 0.018885579 0.044476166 0.09860885 -0.009655667 -0.07128067 -0.01607891
0.075610384 0.07546161 0.076106004 -0.051254407 -0.013443197 -0.03453836 0.0011370546 -0.013900887
0.04504052 -0.007786474 -0.084198505 -0.019315016 -0.015704244 0.0721659 -0.0322447 -0.09913993
0.08370092 0.027650166 -0.009418553 -0.08705986 0.03024358 -0.07901308 0.009696363 0.085304506
0.028112076 -0.006465827 0.043124765 -0.026178112 0.03196999 -0.05046551 0.024067435 -0.002875287
0.103732005 3.440014e-05 0.030629046 0.006307067 -0.020991746 -0.05712703 -0.02937743 0.08752343
0.017714007 -0.01512623 -0.028625742 0.08284062 -0.061367895 0.025411751 -0.032362275 0.099567436
00000000: 8564 053d 04dd 953c 6304 353d 41e5 a93c
00000010: 2449 833d c277 f83b 5e46 7ebc ca4c e43d
00000020: 07cf cabc 7220 93bc 44f5 b73c a534 97bb
00000030: 237c 7b3d 1916 84bd ac3d 903d c730 03bd
00000040: 4ad2 2d3d 2a39 9d3d f31b 323d 419e a5bd
00000050: c06c fdba 7afb 413d 0406 2dbd ff93 05bc
00000060: 0890 8e3d 224b a6bc bcbb 5bbd b3db a93d
00000070: 5d11 0f3b 66a5 64bd e8d5 953d 9c3d d7bc
00000080: e09d 2b3d bc9b a53d a159 5cbd ade6 813d
00000090: 411b 73bc 0620 80bc fdb9 c0bc 1174 3d3d
000000a0: 62e1 533d 0443 4bbd 5b18 c8bc c2a6 9d3d
000000b0: 9c3e e1bc 004d d83c cfb7 c8bc 1c17 5c3d
000000c0: f6b1 0d3d 6134 89bd e407 993d cce0 4bbd
000000d0: dd21 ae3d a587 783d 3877 dc3c 4070 903d
000000e0: b7c2 893d 8bf4 b13d 9721 5fbd 7a2e 713d
000000f0: 8567 1ebc 71e1 8dbb a4b0 d33d a96f 80bd
00000100: 45ff aabd d023 7e3c f855 27bd 47bb 463d
00000110: b85b 8bbd 4efd 9ebb ad47 56bd 4818 66bd
00000120: 7393 e83d ffeb 643d 3e09 393c 9f58 08bd
00000130: b7dd 86bd ed16 c73d ff32 7e3d c97f 8d3d
00000140: f4bc 1abd 09dd 8f3d 9080 3e3c 1fc4 693d
00000150: 6c46 30bd 6e84 3dbd a636 cabc 6561 063c
00000160: 5ad0 d13c 8dfb c63d af35 85bd 0cec d63c
00000170: 43a7 84bd a8c0 083d 6a97 873d 7a97 d23c
00000180: 1c88 0dbd 9024 353d 2438 533d d082 443d
00000190: 68cc 263c b577 dcbb 7937 32bd 72c7 643d
000001a0: e12b 72bc a5fc d33d af44 71bd 3dfa 7bbc
000001b0: c5b4 c13d 07d8 823d eb06 d83d c9aa 363d
000001c0: 135f dbba 6bea 683d 1ae5 7dbc 8ca2 713d
000001d0: 2a82 723c ee02 05bc e85e 3d3d 012b 1e3d
000001e0: dd1c 3abd fe1c 943d aed0 fd3c aeb8 46bd
000001f0: 9999 bc3d 1652 193b a4d8 4a3d fd2e b2bc
00000200: 659c 01ba 3dbf 7fbd 2647 51bb 1a01 d53c
00000210: 4ef9 8ebd f1c3 d4bc 09e7 7b3d 1d32 923d
00000220: 4449 8abc 80a4 c3bd 014b 1eba 0abf 43bd
00000230: 7df3 5c3d 5533 1fba 15b9 de3d 6a90 5f3d
00000240: 2fab 63bd 083b 4bbd a91c e5bb 0f2f 8e3d
00000250: 4a70 813d 7962 8c3c 9866 96bd c8c5 2abd
00000260: abed eb3c b86f 40bc 8eab 633d cc84 86bd
00000270: 5367 7dbd 46b9 a33d 4cbb 7cbc 3d4a 2cbd
00000280: bc31 9e3d 50df 2c3d ce5e 6e3b 3695 ce3c
00000290: 5eca b93d b7aa 8fbd 8019 e5bc 6d82 993d
000002a0: b95b 613d 7743 093d 99eb 80bd 9086 f2bc
000002b0: b4e6 a03d 8220 64bc fca1 1bbd 5edf 903d
000002c0: da00 4e3c 9d6c 7bbd a710 b53c d852 0d3b
000002d0: d938 1a3d 2f24 a13d ebc0 8b3d add3 c23d
000002e0: b667 47bc eb33 8f3c a765 e4bc af33 72bd
000002f0: dc64 123d 9fa7 3f3d cf39 863d 9c70 e9bc
00000300: 86b8 62bd 378e e0bc 4960 c83d a9e7 58bd
00000310: 61c8 7f3d b18b 893a 8fff 8abc e8b1 99bd
00000320: 317b 9e3d 56b5 8c3d eeb5 9a3c a42c 363d
00000330: 70f3 c93d cd32 1ebc 9afb 91bd ebb7 83bc
00000340: 9ed9 9a3d 9e8b 9a3d 77dd 9b3d 24f0 51bd
00000350: db40 5cbc 1878 0dbd 3909 953a 8cc0 63bc
00000360: 697c 383d ae25 ffbb 4470 acbd 863a 9ebc
00000370: 30a6 80bc b7cb 933d 0513 04bd e009 cbbd
00000380: 636b ab3d 9a82 e23c 4650 1abc 714c b2bd
00000390: 62c1 f73c 9cd1 a1bd 7edd 1e3c 21b4 ae3d
000003a0: 4c4b e63c 4adf d3bb 98a3 303d 7b73 d6bc
000003b0: f7f2 023d ecb4 4ebd 1229 c53c 506f 3cbb
000003c0: 7271 d43d de48 1038 c4e9 fa3c 83ab ce3b
000003d0: e2f6 abbc 08fe 69bd f0a8 f0bc 7c3f b33d
000003e0: f71c 913c 02d4 77bc 8880 eabc 58a8 a93d
000003f0: e75c 7bbd 4e2c d03c 4e8e 04bd 03ea cb3d

fc.weight f4 [2, 128]
-0.044735033 0.13206129 0.08868765 0.03895996 0.022483366 0.06803026 0.09599341 0.020695813
-0.00643282 -0.040171172 0.04005188 0.0326288 0.06465138 -0.027702104 0.021477962 -0.06302587
-0.074436896 -0.09307642 -0.086455315 -0.11088679 0.03415503 -0.055886026 -0.0036459416 0.051179115
0.0022236255 0.059329122 0.02450811 0.028613133 -0.045360956 -0.048060637 -0.07599897 -0.009927752
-0.05463478 -0.07741671 -0.03783044 0.072377235 -0.078577034 -0.020098587 -0.09867217 -0.096023574
-0.12808631 -0.0064342376 -0.121543795 0.13934344 -0.0038714814 0.067252606 -0.014185208 -0.007987561
-0.12148672 0.032812987 -0.023091618 0.045292255 -0.008247611 0.1115459 -0.08895386 0.058367915
-0.054023843 -0.0018434101 -0.019991988 -0.021307053 0.0343698 -0.093578905 -0.060002502 0.043659348
0.0007600094 -0.09708316 0.02453603 0.106293306 0.048475586 -0.09351755 0.051396836 -0.112378106
-0.1352013 -0.0815308 -0.056087866 0.14455028 -0.088230215 0.116464 -0.0050440165 0.09650029
0.0076377844 0.024373073 -0.027559675 -0.08243954 0.044142965 0.00083521975 -0.034083836 -0.05488492
0.070037566 0.008815446 0.04823949 0.0070197484 0.058851387 -0.010377632 0.08013793 0.088071406
0.040127955 0.11166523 0.06640069 0.07119352 -0.049547613 -0.083168246 0.052026007 0.075385354
0.065450996 -0.07016963 0.05378213 -0.023168446 0.047520984 -0.07577252 0.1150384 -0.112746015
0.032367814 0.021231668 -0.08423209 0.058142036 0.06818746 0.09147155 -0.04357059 -0.112550855
0.025982976 -0.054713156 0.10591107 -0.038125485 -0.0124132205 -0.06183908 -0.07606144 0.038405836
0.032036077 -0.069716506 -0.061273698 -0.02808448 -0.03560076 -0.0046434714 -0.072982214 0.0916093
-0.061368868 0.042261686 -0.034449507 0.11234622 -0.05816386 -0.07098134 0.01749179 -0.036781657
0.08952639 0.10542274 0.032828536 0.066687904 0.048455566 -0.06817827 0.027168322 -0.034497723
0.11415802 0.029331349 -0.05520762 -0.00898373 0.02081405 0.00911278 -0.039304357 0.058926236
0.016226955 0.014844265 0.110086165 -0.11143769 0.06193867 0.041249767 -0.008330025 -0.019055163
0.10219659 -0.029494077 -0.037933845 -0.13319874 -0.10839508 -0.025839359 -0.014724638 0.085028
0.051068317 -0.08913727 0.048645888 -0.047398396 -0.027852997 -0.0784521 -0.020195536 -0.0041459617
-0.008095988 -0.08771426 -0.03894679 0.06327957 -0.08127656 -0.03159666 0.04334311 0.05523659
-0.014927933 0.024362221 -0.07233767 -0.1302294 0.10264172 0.043624416 -0.032533664 0.092106596
0.022685032 0.06761018 0.067559704 -0.1299645 0.06668281 -0.052926354 0.002970324 0.029683428
-0.10484248 0.11710337 0.025643423 0.04168184 0.037124462 -0.06189713 0.015180847 -0.0031921656
-0.08842528 -0.11223304 -0.07228628 -0.13575652 -0.024073489 0.10465519 -0.0332394 -0.035156585
0.052702293 -0.111505926 0.059143312 -0.07327043 0.07111649 0.03374999 -0.032182045 -0.04456031
-0.030018127 0.057732165 0.060286082 0.10454399 0.07495724 -0.009672638 -0.012079631 0.02914324
0.13186254 0.09748035 0.074759774 0.017335068 -0.08767237 -0.05044133 0.014242082 0.099130765
0.033977658 -0.030871348 -0.030332107 0.055382706 0.12207353 -0.070676014 0.024661709 0.08871827
00000000: 153c 37bd 133b 073e dfa1 b53d 7b94 1f3d
00000010: 092f b83c 7353 8b3d 3198 c43d 448a a93c
00000020: 68ca d2bb 878a 24bd 710d 243d c7a5 053d
00000030: f167 843d 86ef e2bc 8df2 af3c b513 81bd
00000040: 5f72 98bd da9e bebd 7c0f b1bd 9d18 e3bd
00000050: 25e6 0b3d bfe8 64bd c0f0 6ebb 31a1 513d
00000060: 3fba 113b 1803 733d 3bc5 c83c 1766 ea3c
00000070: 69cc 39bd 3bdb 44bd 59a5 9bbd 03a8 22bc
00000080: b8c8 5fbd a78c 9ebd 17f4 1abd 843a 943d
00000090: ffec a0bd cba5 a4bc a214 cabd 02a8 c4bd
000000a0: 0f29 03be 4cd6 d2bb f4eb f8bd 0cb0 0e3e
000000b0: aeb8 7dbb bcbb 893d 1369 68bc 42de 02bc
000000c0: 08ce f8bd e966 063d a22a bdbc 5f84 393d
000000d0: fd20 07bc 2d72 e43d 712d b6bd 3213 6f3d
000000e0: 1b48 5dbd 949e f1ba 3dc6 a3bc 218c aebc
000000f0: 59c7 0c3d 4ca6 bfbd 2fc5 75bd 25d4 323d
00000100: 5e3b 473a 89d3 c6bd c9ff c83c 4eb0 d93d
00000110: 568e 463d 2186 bfbd 7d85 523d 7e26 e6bd
00000120: 3672 0abe 9ff9 a6bd 64bc 65bd fd04 143e
00000130: 0bb2 b4bd ad84 ee3d 4748 a5bb f2a1 c53d
00000140: 6146 fa3b 0aaa c73c d4c4 e1bc 10d6 a8bd
00000150: 41cf 343d a6f2 5a3a 7e9b 0bbd 03cf 60bd
00000160: db6f 8f3d a96e 103c c596 453d eb05 e63b
00000170: 270e 713d f206 2abc 5b1f a43d c85e b43d
00000180: 365d 243d bdb0 e43d 16fd 873d e9cd 913d
00000190: 70f2 4abd 1d54 aabd 3919 553d a363 9a3d
000001a0: 2c0b 863d 18b5 8fbd a74a 5c3d c1cb bdbc
000001b0: 5da5 423d 9f2e 9bbd 4199 eb3d 62e7 e6bd
000001c0: 1d94 043d 09ee ad3c e081 acbd 5826 6e3d
000001d0: dea5 8b3d 7055 bb3d 1377 32bd 1081 e6bd
000001e0: 40da d43c e71a 60bd e7e7 d83d 7829 1cbd
000001f0: d260 4bbc fa4a 7dbd 1ac6 9bbd 704f 1d3d
00000200: 4338 033d 87c7 8ebd 21fa 7abd 6c11 e6bc
00000210: 1ad2 11bd 4328 98bb b377 95bd a89d bb3d
00000220: ec5d 7bbd 971a 2d3d ed1a 0dbd c615 e63d
00000230: 3a3d 6ebd aa5e 91bd f14a 8f3c 5da8 16bd
00000240: 9d59 b73d e1e7 d73d 3777 063d ab93 883d
00000250: 5879 463d 0ca1 8bbd 1a90 de3c 7c4d 0dbd
00000260: aecb e93d 4c48 f03c 6321 62bd 7f30 13bc
00000270: 3a82 aa3c c54d 153c 9bfd 20bd a35c 713d
00000280: 64ee 843c 5c35 733c db74 e13d 7239 e4bd
00000290: 67b3 7d3d 84f5 283d a87a 08bc 9319 9cbc
000002a0: 724c d13d 909d f1bc 8560 1bbd 4065 08be
000002b0: 3dfe ddbd 10ad d3bc 9c3f 71bc 2923 ae3d
000002c0: 032d 513d 9a8d b6bd e940 473d d224 42bd
000002d0: f82b e4bc 7fab a0bd 1c71 a5bc d9da 87bb
000002e0: 09a5 04bc 89a3 b3bd ab86 1fbd b898 813d
000002f0: 5374 a6bd 806b 01bd 8b88 313d c33f 623d
00000300: 4a94 74bc 4893 c73c c625 94bd db5a 05be
00000310: d235 d23d 84af 323d 0542 05bd 62a2 bc3d
00000320: f6d5 b93c 3577 8a3d be5c 8a3d 6a15 05be
00000330: ff90 883d 4ec9 58bd c4a9 423b a92a f33c
00000340: a7b7 d6bd e4d3 ef3d 2812 d23c 94ba 2a3d
00000350: d20f 183d d887 7dbd 16b9 783c a733 51bb
00000360: 5018 b5bd 70da e5bd d40a 94bd c203 0bbe
00000370: c435 c5bc 7655 d63d 0926 08bd 5a00 10bd
00000380: 5cde 573d 385d e4bd 4240 723d cf0e 96bd
00000390: 86a5 913d 6e3d 0a3d 52d1 03bd df84 36bd
000003a0: 93e8 f5bc 9078 6c3d 8aee 763d 291b d63d
000003b0: 2e83 993d fc79 1ebc a5e9 45bc cebd ee3c
000003c0: f906 073e c7a3 c73d a71b 993d 4602 8e3c
000003d0: 928d b3bd 919b 4ebd 9f57 693c 1205 cb3d
000003e0: 282c 0b3d e9e5 fcbc 0a7b f8bc fad8 623d
000003f0: b001 fa3d 96be 90bd 5a07 ca3c edb1 b53d

fc.bias f4 [2]
-0.018236827 0.12603183
00000000: 6665 95bc 7d0e 013e
